score-based-generative-convolution/score_model_fashionmnist_full_model.pth (torch, 601616 bytes, 7 tensors)

weight f4 [64, 1, 3, 3]
00000000: 44ee 9b3e 282b 8d3e 19db a53c 8519 a53e
00000010: f8e1 2dbd ab50 b33d 970b 11be 3713 353e
00000020: fa29 8e3e 9c25 70be b320 933e a775 473d
00000030: 0e5e 803e 9e38 143e ac1f 1d3e d63d 6cbd
00000040: 2a48 5d3e d5ad 393b 2e47 15be bcfd c63d
00000050: 670b 27be d602 473c c0f9 f9bd 29d9 5d3e
00000060: 4c3e 89be f027 05be 977f cebd b84d 63be
00000070: 01d6 633c 96f8 acbe 1655 9f3e e12e 93be
00000080: 90ac 8b3e c106 7d3c 0b49 e6bd d2a2 553e
00000090: 33df b1ba 6d05 863e 9960 a93c 4249 60bd
000000a0: b26b 153e 8b4a b7bd 3dea be3d ceac 9d3e
000000b0: 1491 2d3e 7d30 18be 9863 f43d a093 73bc
000000c0: de2d 3d3e de5f 50be 474a a3be b37b 0abe
000000d0: 51f4 81be f0fa 953e 8cd4 173c 4564 263e
000000e0: 9291 bb3d a36c a73c 309a 863e 694b 84be
000000f0: 90d7 5e3d 9e00 9cbe ddbb f03d 4f14 b6bd
00000100: 4430 b43d 7aab 1fbd 1e4f 8f3e abbf 51be
00000110: be7f 50be 8463 24be b9f7 8b3e 4830 8a3d
00000120: 4544 ec3e b230 6bbe b51d 8dbe 43da 87be
00000130: dee3 48be 5a75 803e 41dc 313d 9386 a53e
00000140: 944b debd 2f7b 49be e6fa 823e eed1 06be
00000150: c4e5 993e 187e 88bd 0cb2 473e 356a 68be
00000160: 0965 50be 151a 993d f9c9 47bd 87a1 f1bd
00000170: 2c7d 3c3e ef53 4c3e 1ed8 85be af6f 25be
00000180: 54fc ba3e dbf1 20be fbac 3bbe e8bb a5be
00000190: 9e7f 75be 3118 d33d a69f b8bd a01a 95be
000001a0: 1aac 493c 389f 76be 5dc8 9ebe 66bc 12be
000001b0: 23f7 4bbe e125 5abe 3d7d fd3e 082e 3d3e
000001c0: cb63 133e b04e b3be 9c1d b6bd a328 bd3b
000001d0: 24ac 3d3b df72 8fbe cf71 29be 3009 49be
000001e0: 9c99 95bd 2cde 24be 85f3 93bd afb2 51be
000001f0: 452d 78be d680 44be b13d 32be 09b6 80be
00000200: 5e2c 9d3e aac9 e5bd bf67 963e 46d0 053e
00000210: 00cb 9dbe 82d9 903e fc40 adbd be66 a3bd
00000220: 688c 86be 8687 98be 8aff 0f3e 4c3f 8ebd
00000230: cae6 403e 575e 78be 8d88 7c3e 8bf2 66be
00000240: 996a 7dbd a9f4 8e3d dc77 213e 4330 873e
00000250: c49c 983e 180f 8ebe d4e4 df3d 9acf 0dbe
00000260: 9d84 433b eb0d 8cbe e80a 8e3e ecf2 83be
00000270: 9818 d93d ed9b aa3d feff 8a3d e351 98be
00000280: a0a7 9b3e 5907 53bc 655a 843c ef35 99be
00000290: 4231 373e 3383 45bd b331 15be d900 8d3e
000002a0: 3035 4c3d eb5e 51be 08f8 30be e8fc 82bd
000002b0: 5dc9 1a3e 2b11 8dbd 5d72 2cbe 48f3 d3bd
000002c0: 0a71 6dbe 1278 c33d d7b0 823e 779a a1be
000002d0: 69ce f73d f28a 443e 40f4 033e 9c6a d0bd
000002e0: 5ca2 433e 0edf 363e ba2b d03d 8a7f 3ebd
000002f0: f0f4 f5bd c626 b8bc e973 a4bd 6739 edbd
00000300: 1caa 4c3e 4018 883e 9a7e 78bb ac86 03be
00000310: c465 0fbd 0532 10bd 724f 833d 2d95 093e
00000320: 77c9 97be b6ca 93bd 1079 9f3e aac0 253e
00000330: 6fc7 2dbc c32a 36be 0e7f 35be 4334 70be
00000340: b4c8 29bd 2abd ad3d a0e0 ad3e aa25 5b3e
00000350: 79a1 bdbe 61b5 3cbe 6b24 c5bd a8dd 9d3e
00000360: c1b9 863c 5faa 9fbd e3e7 093e 1145 97bd
00000370: cf93 5bbe 3e83 853e 77de e1bd 8766 07bc
00000380: 4440 a9be 23b3 183e dd38 7a3e 2a60 053e
00000390: 817e 85be 3ca8 bfbe ae7b 9cbe 26bd 443e
000003a0: 4989 193e fe1b 6a3e 9925 713e e038 773c
000003b0: d779 b83b 4951 7fbe 536e 8dbe 2f2d 97be
000003c0: db9e 2c3e 9645 1fbe 75c3 60bd 47ec 54be
000003d0: b2f7 20bd 73da 62be b586 80be 66de 243e
000003e0: c7c7 a1bd efb1 703e 07e1 03be b9f5 54be
000003f0: 698f 463d 6dca 36be f3d2 0dbe a452 b4be
0.3045522 0.27571988 0.020246075 0.32246032 -0.04245183 0.087556206 -0.14164577 0.17683111
0.277664 -0.23451847 0.28735885 0.048696186 0.25071758 0.14474723 0.15344113 -0.05767616
0.2160956 0.0028332372 -0.14577934 0.09716365 -0.16312943 0.012146672 -0.12205839 0.21664871
-0.2680534 -0.13003516 -0.100829296 -0.22197616 0.013906003 -0.33783406 0.31119603 -0.28746703
0.27280092 0.015443505 -0.112444006 0.20862892 -0.0013570547 0.26176015 0.020675944 -0.054757364
0.14591864 -0.08949765 0.09322021 0.30795902 0.16949874 -0.14862247 0.119330585 -0.0148667395
0.18474528 -0.2034907 -0.31892607 -0.1352375 -0.2538171 0.29293013 0.009266984 0.16249187
0.09158625 0.020437544 0.2628951 -0.25838783 0.054404795 -0.3046922 0.11754582 -0.08890592
0.087982684 -0.038981892 0.2799005 -0.20483272 -0.2036123 -0.16053587 0.27337435 0.0674749
0.46145836 -0.22967795 -0.27561727 -0.26533708 -0.19618174 0.25089532 0.04342294 0.32329234
-0.10854259 -0.19675897 0.25582045 -0.1316602 0.3005811 -0.066646755 0.19501513 -0.22696765
-0.20351042 0.07475678 -0.0487766 -0.11798387 0.18407124 0.19953893 -0.26141447 -0.16155885
0.36520636 -0.1571726 -0.18327706 -0.32369924 -0.23974463 0.103073485 -0.090148255 -0.29121876
0.012309099 -0.24084175 -0.3101224 -0.14329681 -0.19918494 -0.21303512 0.49509612 0.18474591
0.14393537 -0.3502097 -0.08892366 0.0057726665 0.0028941715 -0.28017327 -0.16547321 -0.19632411
-0.07304689 -0.16100377 -0.07224182 -0.20478319 -0.24236019 -0.19189772 -0.17406346 -0.25138882
0.30697912 -0.11220105 0.29376027 0.13067731 -0.3081894 0.28290945 -0.084596604 -0.07978581
-0.26278996 -0.29790896 0.14062324 -0.06945667 0.18838039 -0.24254738 0.24661465 -0.2255346
-0.061869238 0.06980259 0.15768379 0.26404008 0.29807103 -0.2774589 0.109323174 -0.13848725
0.0029833682 -0.2735437 0.27742696 -0.25771272 0.10600394 0.08330522 0.06787108 -0.29749975
0.30401325 -0.01288017 0.016156385 -0.2992396 0.17889884 -0.048220824 -0.1456974 0.2753971
0.04985541 -0.20446365 -0.17282116 -0.06395894 0.15115876 -0.0688804 -0.16840501 -0.103491366
-0.23187652 0.09544386 0.25525543 -0.3156316 0.120999165 0.19193628 0.12886143 -0.10176584
0.19104904 0.17858526 0.1016459 -0.04650835 -0.12009609 -0.022479426 -0.080299206 -0.11583214
0.19986767 0.26581 -0.0037917257 -0.12844342 -0.03500916 -0.035203952 0.06411637 0.13435812
-0.29645893 -0.072163984 0.3114705 0.16186777 -0.010606631 -0.1778975 -0.17724249 -0.23457436
-0.04145117 0.08483346 0.33960438 0.21401086 -0.37037256 -0.18428566 -0.09626087 0.30833173
0.016445996 -0.077961676 0.13467364 -0.0738622 -0.21443103 0.26076692 -0.1102876 -0.0082641905
-0.33056843 0.14912085 0.24435754 0.13024965 -0.26073077 -0.3743304 -0.3056311 0.1921278
0.14993776 0.2286224 0.23549499 0.015089244 0.005629759 -0.24933352 -0.27623233 -0.2952666
0.16857474 -0.15553889 -0.054873902 -0.20793258 -0.03929872 -0.22153644 -0.25102773 0.16100463
-0.07899433 0.23505376 -0.1287881 -0.20796861 0.04847661 -0.17850657 -0.13850002 -0.352193

bias f4 [64]
00000000: 13ce d03d 253e b23e 7c99 9bbe aaf7 49be
00000010: f365 b43e 5d35 c7be 1a8f 7c3e bb5a f13e
00000020: 898d 3a3e cefc 2c3e 3cb4 17be f249 013d
00000030: ef73 623d d530 453e e27a 8c3e 8984 f13e
00000040: 9576 aebe 9b18 5e3d f2d7 8abe 1836 cbbe
00000050: ceaf 193e 93ef d3be 54e2 f03e b9fc 0f3e
00000060: c3d6 adbe a159 a23e bfcd eebe 34ae 75be
00000070: 7d6a 6c3d a497 b5be aef2 50be f881 29be
00000080: 583e be3e ad46 f43e d6f4 c33e 25f1 a7be
00000090: 6415 b5be 433a ea3e b6d3 933e 4a2a 7bbd
000000a0: e388 383e 8f7b a1be 79fe 7b3d 4c6d fd3e
000000b0: 7b79 12be a57c fabd ba08 e5be 4eae 42be
000000c0: ef51 aebd 4a26 9abe 567b c5ba 3972 8a3e
000000d0: 1e60 c9be a820 9b3e 8e35 4abe 952b 53be
000000e0: 9914 273e ae32 d93e df9b 63bd 6952 14be
000000f0: b5d1 ecbe ab76 87be db71 44be 76eb 213c
0.101955555 0.34813038 -0.30390537 -0.19723383 0.3523403 -0.389079 0.24663964 0.47139534
0.18218054 0.16893312 -0.14814848 0.03156466 0.055286344 0.19256909 0.27437502 0.4717143
-0.34074846 0.054222684 -0.27117878 -0.39689708 0.1500847 -0.41393718 0.47047675 0.1406125
-0.33952913 0.31709006 -0.46641347 -0.23992234 0.057718743 -0.35467255 -0.20405075 -0.16553485
0.3715694 0.4771017 0.38272732 -0.32801166 -0.35367882 0.45747575 0.2887246 -0.061319627
0.18020968 -0.3153958 0.06152198 0.4949745 -0.14304154 -0.12230805 -0.4473322 -0.19011804
-0.08511721 -0.30107337 -0.0015066664 0.2704027 -0.39331144 0.30298352 -0.19746992 -0.20622094
0.16316451 0.42421478 -0.055568572 -0.14484562 -0.46253744 -0.26457724 -0.19184057 0.009882798

weight f4 [128, 64, 3, 3]
00000000: 0d2b 743c f174 abbc 84f8 133d 1cbf 333d
00000010: 3a85 e9bc 430c 03bb ad15 223d a672 133b
00000020: 67a2 1cb9 a195 51bc 7524 283d 7bc0 f7bc
00000030: 2614 463d 9cef cb3c cac1 223c 8fd2 293d
00000040: 3be6 a6bb 6573 11bd a51f 243b 1cac 3d3d
00000050: 238d 5cbc eb1c 5f3c 0b6b eebc 8af6 043d
00000060: cde4 253d 3f0e bf3c 4efd 2d3d b989 423c
00000070: 9ca2 133d ff13 babc 09e3 243b c893 d63c
00000080: fdec 523d ce8a 173d 78e1 ddbc 0869 da3c
00000090: b3d0 1dbc 9257 2c3a 1f99 29bd 657d 3bbc
000000a0: 7269 573d ba99 163c 21a9 babc 6758 0e3d
000000b0: 5235 d8bc e8e6 073d 2712 aabc edf9 e5bb
000000c0: 0071 d6bc 5e6f 0bbc 3e09 903c 8c11 493d
000000d0: 7851 453c 52c6 403d 4b4c 833b 953f fa3c
000000e0: 9c8a 1f3d 9f93 e13c 86a7 6abc a0cf 333d
000000f0: a132 cf3c a3a2 a6bb 5aa2 7fbc 76d6 fdbc
00000100: 8fb5 3f3c afc3 f9bc abf5 ac3c 979f db3c
00000110: 9676 e5bc 4597 863c 91de a0bb b600 393c
00000120: c3e0 183d 8856 19bd 3c80 373d a011 0b3d
00000130: c17d 713c b933 18bd 0a15 1c3b a566 77bc
00000140: 6014 5cbc b181 0b3d de13 963c 6e0f 353d
00000150: 2449 46bb c8ec 563c c21a 883c ca7d 8bbc
00000160: 4adb 47bd b92f 29bc 66e7 8a3d d2ce c6bc
00000170: 5440 f5bc 969c 4a3d 51ac bd3c 5262 163d
00000180: 1612 3b3c e9fc 8cbc b844 273d 5da7 213d
00000190: 6d38 163d d1e4 563c 208d 7e3c 07d5 2f3d
000001a0: e7ca a2bc 3098 86bc 6cd4 1a3d d5d2 78bc
000001b0: aa2f 34bc 22ba 5f3d 6647 0c3c c8e5 9a3c
000001c0: b110 16bc 95b6 f5ba 2758 d33c 8262 ddbc
000001d0: c1e4 28bb 80e6 d43c 527a 52bc ff28 5f3d
000001e0: 8431 9fbc 3b31 20bb 70cb fbbb 8bcc 96bc
000001f0: 2bb0 d0bc 391d 103d 0b18 2f3b 1038 dbbc
00000200: 00ba 00bd db4a 033d 31e2 b93c 8366 013c
00000210: f5c5 e0bc e283 abbb e9a1 38bc 204b 66bc
00000220: 3c32 cdbc 84fc 473c 37b5 e5bb 672c f83b
00000230: c343 40ba 4a9a 0bbc ea7c d53c 195a b23c
00000240: 0c56 ed3b 4ab8 20bd 9851 993c d3a5 803c
00000250: 8275 2fbc f559 623d d6d2 46ba 89ba 213d
00000260: 62a1 093d bdec 8fbc 8590 f43c 93ed c9bc
00000270: 4300 57bb 8876 033c ed54 b9bc cb6b 453d
00000280: 1f1b c6bb 8f87 a13c e28d aabc c4b1 d63c
00000290: 77bc 2abc 8b41 06bd 39da 1b3c f1c7 863c
000002a0: c88b ea3c ed2c 3abc a94f 20ba 7ef4 ac3c
000002b0: 6876 2e3c ba8d a83c ed7e d13c 55c7 82bc
000002c0: 9976 833c a464 533d 980b 5c3b dfc3 253d
000002d0: f499 6d3c af9d 1d3d 7ca2 ecbc fb16 91bc
000002e0: 409c c0bb bea4 b7bb 2bfe 233d 531e b5bb
000002f0: d038 c53c eb49 9e3b 3705 a83c da9c 1bba
00000300: 9065 50bc b819 9ebc cccf 27bc 6ef2 223d
00000310: 3656 29bd 3130 083c 3205 9f3a b8a3 b0bc
00000320: 493f d93c cf04 60bd 2f23 16bd 941a 25bd
00000330: 90db 89bc 0930 363c fcdc 983c 04fd cc3b
00000340: 6754 0b3d 1471 0b3d a0ff f03c a7cd e8bb
00000350: c680 fbbc 131b b23c 4856 b6bc 3075 d63c
00000360: 428a 0e3d c73f 903c 6448 2b3d 1236 e43c
00000370: 0fc0 123c a221 ffbc c7d0 393d e73c 6f3b
00000380: da97 263b 6f12 133d 1a1b 003d 2511 773b
00000390: c6b7 77bb 5d4f f8bc 1c0e 5cbb a42d 163d
000003a0: e5ad 4a3b 5bc6 6ebb cf63 1bbb 5833 fabb
000003b0: bbb1 c13c 436c 253c 7064 103d 33c2 48bc
000003c0: 8d21 343d 3301 d53c 191c 863b a3c3 393d
000003d0: bd9e fc3c febc 4d3d befd ff3c 927a 60bc
000003e0: 78b6 0dbd fb59 d73c 8edc be3c d907 debb
000003f0: 1fb9 743c c116 323c 3c62 283d 647d 873c
0.014902842 -0.020929785 0.036125675 0.043883428 -0.02850591 -0.0019996322 0.039571453 0.0022498756
-0.00014937819 -0.012792022 0.041050393 -0.030243149 0.04835906 0.024894528 0.009933898 0.04146057
-0.0050933636 -0.03551044 0.0025043276 0.046306714 -0.013461384 0.013617734 -0.029103776 0.03246168
0.040501405 0.023322223 0.0424779 0.011873656 0.03604375 -0.022714613 0.0025159738 0.026193514
0.05149554 0.03699761 -0.027085051 0.02666141 -0.009632277 0.0006574328 -0.041405793 -0.011443471
0.052590795 0.009191925 -0.022785725 0.034752276 -0.026392613 0.033179194 -0.020760609 -0.007018319
-0.02617693 -0.008510439 0.017582532 0.049089 0.012043349 0.047064133 0.0040068976 0.030547896
0.038950548 0.027536212 -0.014322167 0.04389918 0.025292696 -0.005085306 -0.0156026725 -0.030986052
0.011701002 -0.030488817 0.021113237 0.026809497 -0.028010648 0.016429553 -0.0049093445 0.011291673
0.037323724 -0.03743604 0.04480003 0.033952355 0.014739455 -0.0371587 0.0023816251 -0.015100156
-0.013432592 0.03405923 0.01832002 0.044204168 -0.0030255998 0.0131179765 0.016614322 -0.017027754
-0.048793115 -0.010326319 0.06782417 -0.024268541 -0.0299379 0.04946574 0.023153456 0.03671486
0.011417886 -0.01721044 0.04083702 0.03946625 0.036674906 0.0131160775 0.0155365765 0.042927768
-0.019872142 -0.01642999 0.037800238 -0.015186985 -0.010997692 0.05462087 0.008561945 0.018908396
-0.009159253 -0.001874643 0.02579887 -0.027024511 -0.0025771114 0.025988817 -0.012846546 0.054482456
-0.01943279 -0.0024443406 -0.0076841637 -0.01840808 -0.025474628 0.03518412 0.0026717212 -0.026760131
-0.031427383 0.03205381 0.022690864 0.007897976 -0.027438143 -0.0052342275 -0.011269071 -0.014055997
-0.025048368 0.0122062005 -0.007010128 0.0075736525 -0.0007334316 -0.008520672 0.02606054 0.021771478
0.0072429236 -0.03923825 0.018715665 0.015704071 -0.010709168 0.05526157 -0.00075845176 0.039484534
0.033601172 -0.01756894 0.029854069 -0.024649417 -0.0032806552 0.0080238655 -0.022623504 0.048198503
-0.0060457136 0.01971796 -0.020819608 0.026207812 -0.01042091 -0.03277735 0.009512478 0.016452761
0.028631106 -0.01136325 -0.0006115386 0.021112677 0.010648347 0.020575393 0.025573218 -0.01596419
0.016047763 0.05160965 0.0033576246 0.04047 0.014502037 0.038480457 -0.028886072 -0.017711153
-0.0058780015 -0.0056043556 0.040037315 -0.0055272966 0.024074942 0.004830589 0.0205103 -0.00059361535
-0.012719527 -0.019299373 -0.010242414 0.03978198 -0.041341983 0.008312271 0.0012132286 -0.021562442
0.026519435 -0.054692086 -0.036654647 -0.04030855 -0.016828328 0.011119851 0.018660061 0.0062557478
0.03401604 0.034043387 0.029418766 -0.007104594 -0.030701052 0.021741426 -0.022257939 0.026178926
0.03479982 0.017608536 0.041817084 0.027857814 0.008956923 -0.031143967 0.04536512 0.0036504806
0.00254201 0.03590625 0.031275846 0.0037699428 -0.0037798746 -0.03031128 -0.0033577746 0.03666462
0.0030926403 -0.0036434147 -0.0023710614 -0.007635515 0.023644319 0.010096612 0.035252035 -0.012253332
0.04397731 0.026001548 0.004092705 0.04535259 0.030837411 0.050229065 0.031248923 -0.013701098
-0.034597844 0.026288023 0.023298528 -0.006775838 0.014936714 0.010869683 0.04110931 0.016539283

bias f4 [128]
00000000: e5f0 6fbd 5944 1c3d 1435 1f3b 666f dd3c
00000010: dea4 b5bc 447e dd3d efe6 233e 3004 49bd
00000020: 0501 b93c ffac 3d3b b280 933c 3799 4a3d
00000030: 562e 063e 7b57 9bbb dfd3 d63d 6e0d d03b
00000040: 07fc 143e aad0 7c3e bf6f 75bd c364 eb3d
00000050: cb6c 483e d896 bf3a 3116 1b3e 4084 863c
00000060: e0f9 173e e3d0 db3d 4f95 403d 9070 97bc
00000070: 9d78 b43d 8bfe 3c3e 5a12 7abb c6d3 debd
00000080: 9bc3 fcbc de81 ba3d 5603 013e 8dc0 a53c
00000090: ce92 cfbc 7509 b83c 84ef 203e 83b3 093e
000000a0: 693d 083e 8353 083d 1a02 31bb bcac 3ebd
000000b0: 2d4e 8fbd 7e83 9c3d 5ac6 1d3d 3e6a 22bd
000000c0: fdf3 413e 333a 213c 7d30 1abd 35d5 cbbd
000000d0: ab31 763d db0e c7bd 2589 fcbb 7015 e23d
000000e0: 1ae1 7fbd 67b2 c1bd 98e6 9d3d 6d79 e0bd
000000f0: 4be4 203d 1fe9 943d 6296 293d 821e b1bd
00000100: 3b61 a23c 3f9b b13c 0723 2ebd e845 eb3d
00000110: da98 653d d751 a7bd 8b8b 4cbd 6efb 983c
00000120: e021 663d fb9d c0bd cd0f 1a3e f3cd d33c
00000130: fd94 0abe 682f c53d 46c5 42bd b16a 11bd
00000140: 4a97 b2bd 5c4b 72bc 11ec ff3c 8723 143d
00000150: 0859 243d 929f bd3b 59f6 d43d be43 fe3b
00000160: 1585 c93c 01d1 1f3e 87e1 953d 6aa5 aebd
00000170: 8bc8 7c3d 4c1d 3dbc 2a43 58bd 9adc f53d
00000180: 8efb 263d 6d19 8a3d 4873 5cbd 7e89 2f3e
00000190: df4d 8bbd df29 4d3d b47a 8e3c 7b21 243e
000001a0: 10bd 2a3c 7878 b2bd d4bb 153e 31d7 aa3d
000001b0: 40ca afbc b4e4 b7bd 521e acba d77a 56bd
000001c0: 8a99 39bc aeaa 7abd 4508 e23d 8113 dbbd
000001d0: 5251 5c3d dfc0 27bd b0cc 8f3d 434d fabd
000001e0: 23bb 0f3e 121c 053e 7506 0f3e 825e 493e
000001f0: 1f35 8e3d f133 8ebc a4ec 553d d6ba 913d
-0.058579344 0.03815112 0.0024293112 0.027030658 -0.022173341 0.10815099 0.16006063 -0.04907626
0.022583494 0.0028942225 0.018005703 0.049462523 0.13103613 -0.004740653 0.1048963 0.006349257
0.14549266 0.24688974 -0.059921023 0.11493828 0.19572751 0.0014617098 0.15145184 0.016420484
0.14841413 0.10733201 0.04701739 -0.018486291 0.08812068 0.18456475 -0.003815791 -0.10880236
-0.03085499 0.091068015 0.12598929 0.020233417 -0.025338557 0.022465447 0.15716368 0.13447385
0.13304676 0.033282768 -0.002700931 -0.04655145 -0.06997333 0.07642268 0.03851924 -0.0396521
0.1894073 0.009840536 -0.0376439 -0.099527754 0.06010596 -0.0971963 -0.0077067786 0.11039245
-0.062470533 -0.09457856 0.07709998 -0.1096066 0.039280217 0.07271027 0.04140318 -0.08648397
0.019821754 0.021680472 -0.042513873 0.11487943 0.056053974 -0.081699066 -0.049937766 0.018674579
0.05618465 -0.094051324 0.1504509 0.02585504 -0.13533397 0.09628183 -0.047551416 -0.03550214
-0.08720262 -0.014788475 0.031240495 0.036166694 0.04012397 0.0057868445 0.103985496 0.0077595403
0.024599591 0.15607072 0.073184066 -0.08527644 0.06171469 -0.011542629 -0.052798428 0.12004967
0.040767245 0.06743131 -0.05382088 0.17142293 -0.06801962 0.05008876 0.017392494 0.16028397
0.010421053 -0.08714384 0.14622432 0.08341826 -0.021458745 -0.089791685 -0.0013131595 -0.052363243
-0.0113281105 -0.06119793 0.110367335 -0.106970794 0.05378849 -0.04095542 0.07021463 -0.12221768
0.1403623 0.12998989 0.13967307 0.19664958 0.06943726 -0.017358752 0.05222763 0.07115714

weight f4 [64, 128, 3, 3]
00000000: a8d4 b8bc 7946 dfbc f06b 7bbc ded6 303c
00000010: 062e 59bc 9b57 b83c ec70 2fba d223 533c
00000020: ccb6 a53a 1218 cdbc 6a45 d5bc 4b29 19bc
00000030: 50f0 8bbb d289 043c 6664 dabb e7ae a4bb
00000040: a9c5 363c e37a 013d 2925 78bc d77a 7ebc
00000050: a457 bd3c 6f9d 04bd 0c9c d03a f475 99bc
00000060: 43fc b93b 7096 8abc ce9c 5a3c dd4a 293d
00000070: 79e9 37bc 7b17 1cbd bc73 25bc a73e 59bc
00000080: 8a14 87bb ac56 dbba 79f0 82bc 1081 06bd
00000090: 8fb9 a8bc 07e2 3cbc 0162 003c 5248 edbb
000000a0: 92d6 0bbc 5d9f 143c 4a63 33bd 42d5 7fbd
000000b0: 21cc 6abc bf73 4cbd 0560 7abc e808 0e3d
000000c0: 197a 3abd 9223 a3bc 5ac4 043c e261 033d
000000d0: c646 afbc 255a 09b9 8ebb 03be ce66 d3bd
000000e0: 788f 16bb 7c34 06bc 76f8 5a3d 3675 a73d
000000f0: 58b3 803d 3ab7 bc3d 1ef1 9c3d ca94 8cbc
00000100: 4557 6a3b 4524 ab3c 1ade cd3b 7ce3 9bbc
00000110: 7dc6 c7bc 841f d63c a808 afbc dc8b b53b
00000120: 257b 713c 3a27 04bb a3d0 103b 2546 b93b
00000130: b0f4 2ebd 0a9c 9239 df5a f3ba 2ce7 023d
00000140: 5e54 6bbb c1f8 b7ba 2528 17bc 7316 06bc
00000150: dc1e 57bb 0b9e ed38 3e32 05bc 4f91 e13c
00000160: 6b46 cabc 3c8e d8bc 2108 d1b9 07b0 20bc
00000170: bfed c33b 107a 5abc 32fb d03c 49ff 683c
00000180: d5bb aabc a174 1dbd 41f7 203b 0c9e 7b3c
00000190: 3318 09bd 387f 16bd 2148 8ebc 7ca9 363a
000001a0: 83ce 4ab9 fe73 d33b 44cd 5ebd 3f13 f9bc
000001b0: b24b 12bd 4c72 d1bc 0af4 3bbc 0511 81bd
000001c0: d817 9a3b 7be4 813d b1be 48bb 482f 7f3d
000001d0: b99f 493c c7b8 ca3c 71f4 453c 8638 ddbc
000001e0: f640 d83b 23fc 9dba 523d 813a 8c84 7ebb
000001f0: 5e65 cf3b 3839 2b3a 5dda bc3b 9434 c93b
00000200: e259 3ebc ad9f 10bd e53b 44b8 cc6e c6bc
00000210: 8c9a 88bc 9071 0abc fb2a 71ba 9780 fabb
00000220: 3cc3 9fbc 9b5a 1a3d 59a7 053d fcac 903b
00000230: 2ccc 913b 2ad6 05bd c8ea febc 9044 0fbd
00000240: b9e4 a3bd cf65 9dbd 283d 73bd 9bb3 b43c
00000250: 6322 183d b8b6 a73d e1e2 a83d 314d 893d
00000260: 4082 8a3d 6a04 10be c759 ca3b 9a2f b9ba
00000270: 699a e4bc cfed 01bc e2ab aa3c ad48 353d
00000280: af22 2abc 36a4 093d 9ba8 0b3d 36b6 fa39
00000290: 9306 763c b50e eabc 6380 e53c 4eef edbc
000002a0: b2cc 1ebb 73c5 31bc ae80 69bb ef76 43bd
000002b0: c9f5 9e3b f4a7 2d3d c528 ce39 03a8 383d
000002c0: 4ce5 cf3c 10b1 9cbc f8c9 17bd 07e3 ee3c
000002d0: b68e 87bd 8ad2 443c 1def eebc 0ee1 573b
000002e0: 59f4 bb3b 4097 8abc 2d80 13bd 1fb1 c63a
000002f0: 8223 813b 03e7 b43c 9777 7c3c aec7 e93c
00000300: 1070 58bc 3a7e 5c3c 1279 943a 3c71 e13c
00000310: bf45 043b 30ff 2bbc 2225 343d 9e1d 583c
00000320: 2e05 b3bd 41d7 fc3b c886 6a3c b46d c0bc
00000330: 0aec fd3b 36da 22bc 462e 9ebc f44a 85bc
00000340: 2e19 a2bb beb2 93bc 608f 67b8 fe46 c03c
00000350: 6e5d 00bc e7c8 b3bb 4df6 823c 23be fcba
00000360: 9264 543d f71f d5bd 73c9 f13c 03ea 433c
00000370: 6aef cbbd e8f8 2f3c 88c7 893d 4f73 06bd
00000380: ae14 213d c7e7 fe3b 8b04 00bd 6d3a c3ba
00000390: aceb ab3c 8bc2 98bc 762e 5dbc c977 e5bb
000003a0: 9234 aa3b f259 383c 001a abbb a2e4 583b
000003b0: 284b 88ba 34ca 843c 4a19 993b a483 4ebc
000003c0: 1783 93bc 7297 253c 9176 683c 838c e7bc
000003d0: ff5c 7fbd 0ed7 7abd b72a 34bd 2fb5 bbba
000003e0: 738f ff3c 0a87 5bbc 0c57 98bc e6d5 653c
000003f0: 9cf7 2dbc 92a2 543c d1d0 90bc 57a0 1bbc
-0.02256234 -0.027255284 -0.0153455585 0.010793416 -0.013255602 0.022502711 -0.0006692547 0.012886958
0.0012642979 -0.025035892 -0.026034076 -0.009348224 -0.004270591 0.0080895 -0.0066648005 -0.005025733
0.011155524 0.031611335 -0.015145578 -0.015532217 0.02311308 -0.032376703 0.0015915646 -0.018733002
0.005675824 -0.016917437 0.013343049 0.04133116 -0.011225098 -0.03810833 -0.010098394 -0.013259566
-0.0041223215 -0.0016734204 -0.015983807 -0.032837927 -0.020596294 -0.0115284985 0.007835866 -0.0072412873
-0.008535044 0.009071198 -0.04379586 -0.062459238 -0.014330895 -0.04991507 -0.015281682 0.034676462
-0.045526598 -0.019914422 0.0081034545 0.03207577 -0.021396052 -0.0001309892 -0.12864515 -0.10322343
-0.0022973698 -0.008191224 0.053459607 0.08176653 0.06284207 0.09214635 0.07663177 -0.017160792
0.0035757583 0.020891318 0.00628258 -0.019029371 -0.024386639 0.026138075 -0.021366432 0.005540354
0.014738833 -0.0020164982 0.0022097013 0.005654114 -0.04271382 0.00027963548 -0.001856651 0.031958744
-0.003590844 -0.0014035926 -0.00922588 -0.008184063 -0.003282479 0.000113304784 -0.008129654 0.027535109
-0.024691781 -0.02643501 -0.00039869643 -0.009807593 0.0059792693 -0.013334766 0.025510404 0.014221021
-0.020841518 -0.038441304 0.0024561437 0.0153575055 -0.033470344 -0.03674242 -0.017368378 0.0006968004
-0.00019341153 0.0064530363 -0.054394975 -0.030404685 -0.03571672 -0.025567196 -0.011471758 -0.06302074
0.0047025494 0.06342407 -0.003063124 0.06230095 0.012306147 0.024746312 0.012082205 -0.027004492
0.006599541 -0.0012053292 0.0009860194 -0.0038836328 0.0063292226 0.00065316586 0.0057633356 0.006140301
-0.011618109 -0.03530853 -4.6785823e-05 -0.024222754 -0.016675256 -0.008449927 -0.0009199825 -0.0076447236
-0.019502275 0.037684064 0.0326303 0.0044151526 0.004449388 -0.032674946 -0.031117812 -0.034977496
-0.0800261 -0.07685434 -0.059384495 0.022058299 0.03714217 0.08189148 0.08246399 0.06704176
0.067631245 -0.14064184 0.006175253 -0.0014128566 -0.02790566 -0.007930233 0.020833913 0.044258762
-0.010384246 0.03360387 0.03409634 0.00047819474 0.015016216 -0.028571466 0.028015321 -0.029044773
-0.0024230895 -0.010850298 -0.0035629678 -0.047720846 0.004851077 0.0423965 0.00039321758 0.045082103
0.025377892 -0.019127399 -0.037057847 0.02916099 -0.06619017 0.012013087 -0.029166752 0.003294054
0.0057359156 -0.016917825 -0.03601091 0.0015158987 0.0039410004 0.022082811 0.015409372 0.028537598
-0.0132103115 0.013457829 0.0011327586 0.027519815 0.0020183173 -0.010497853 0.043980725 0.013190655
-0.08741222 0.00771609 0.014314361 -0.02348981 0.0077490853 -0.009939721 -0.019309174 -0.016271092
-0.0049468493 -0.018029567 -5.520822e-05 0.023471352 -0.007834775 -0.005486596 0.015986586 -0.0019282739
0.051853724 -0.104064874 0.029515004 0.011957648 -0.09957774 0.010740496 0.06727511 -0.03282481
0.039326362 0.007779095 -0.031254333 -0.0014894732 0.0209864 -0.018647453 -0.013499847 -0.007002805
0.005194255 0.011251913 -0.0052216053 0.003309526 -0.0010398375 0.0162097 0.004672204 -0.012604628
-0.018006844 0.010106908 0.014188425 -0.028265243 -0.062344547 -0.06124025 -0.04398605 -0.0014320965
0.031196332 -0.013398895 -0.018596195 0.014028048 -0.010618117 0.012978213 -0.017677696 -0.009498677

bias f4 [64]
00000000: fcaa 44bc 395d 5b3d 9c44 32bc e0bd a43c
00000010: 4d0d 9f3d 7341 823d 49fb a43c 49ec 263d
00000020: e0d8 433c e959 df3b ff5c 86bc 0e48 b93b
00000030: bb9c 683c e202 593d 0b73 b63b 919f 9b3d
00000040: 8546 703d 2346 793c c300 8ebc 0cb0 773d
00000050: e2e9 3b3c 5927 5ebc bb14 d33c 10d5 4e3c
00000060: 0d77 8f3d 9e68 bfbc 94c8 b13d eb4e ac3d
00000070: 3b46 e3b9 46fd 12bc 61cd a33d f975 143d
00000080: 0721 273c 4bd6 6d3c 3bee 7e3d 51d3 7b3d
00000090: 6c56 deba 3122 563b 6ab0 883c 7539 94bc
000000a0: c42d 383d 0e1a 0d3c 8473 083d f04d 0bbb
000000b0: 7196 ad3c d9cb 433c 5a7d 133d 55aa f839
000000c0: f008 9d3c aa59 a93d 06dd e2bc cb2c 643d
000000d0: 9cc6 19bc b59b 843d 1005 b73d ff94 5cbc
000000e0: dcd8 803d fd3e 2d3d 8453 9e3c b5ca 8f3a
000000f0: 5c6c 2e3a 64c3 593d 7905 853d b0d5 4e3c
-0.0120036565 0.0535557 -0.010880616 0.02011007 0.07766209 0.0636014 0.020139353 0.040752683
0.0119535625 0.006816138 -0.016401766 0.0056543415 0.014197524 0.052981265 0.0055679134 0.07598794
0.058661003 0.015214476 -0.017334348 0.060470626 0.011469336 -0.013559186 0.025766721 0.01262404
0.07005129 -0.023365315 0.08680835 0.0841349 -0.0004334914 -0.008971518 0.07998157 0.03624532
0.010200745 0.014516423 0.062238913 0.061480824 -0.0016963012 0.0032674188 0.016685683 -0.018093804
0.04496552 0.008612169 0.03331329 -0.0021256171 0.0211899 0.011950457 0.036008216 0.00047429153
0.0191693 0.08269055 -0.027693283 0.05570678 -0.009385731 0.06475011 0.089365125 -0.013463258
0.06291363 0.0422964 0.019326933 0.0010970446 0.000665372 0.053164855 0.064951845 0.012624189

weight f4 [1, 64, 3, 3]
00000000: 13ec 133d b22d 6abd 4894 5ebc 4d4b 8a3b
00000010: 3b59 06bd a4c4 13bd 7031 b33b 278b c7bd
00000020: 30dc 493e 475b 2c3a d61d bfbb 2dc1 8abb
00000030: 01c2 b03b df6d fb3a b40b acbb a8a2 803d
00000040: 0b6d 8a3c 38d5 95bc 9861 093c 9e96 c53c
00000050: 1883 19bc 3841 e23c 8488 06bd cf6c 903c
00000060: 3ab9 183d f792 aabc 60a9 0abd d678 b73c
00000070: 0fc6 ffbc 7c0c ec3c d8fb 30bb d407 933c
00000080: 034a 583c 4905 27bd 0120 543d df6c d63c
00000090: cfae 8bbb d7a3 77bb 04f9 ec3a 154e d0b8
000000a0: 5b2b adba 1b03 92bd 2687 3abb 5251 bf3c
000000b0: 59d7 f13b c381 8b39 1c5f 9a39 2888 6439
000000c0: 955f cc38 1521 273a d7af 073a 8b36 b7bb
000000d0: 7f34 003d 389b e23b e4fc a7bd 46c7 00be
000000e0: e9e8 23bd 2786 013d 6249 8a3d 2931 303d
000000f0: 21a5 133a 003b 403d bea9 363d 2d62 bf3c
00000100: 61f9 96bb 52db bf3c 0d26 b13c 4627 c43b
00000110: a84e e8bb 1535 763b 4955 98bc fd2f 7a3c
00000120: 7fe8 823d 81ce d73d f3d8 3d3c dd5e f0bd
00000130: 1486 2d3d 7846 9e3b abf9 ea3d c673 71bd
00000140: dfa6 5fbc 2080 dd3c 3e01 a23b 989d 883c
00000150: c23e 3a3c 7f4b dc3c c00b 193d 6d65 043d
00000160: 13a8 82bb 5c3a 00bd 5b8d 25bd 91d9 e73c
00000170: 0022 bd3c 4b69 703d 3b0f 053d d920 8e3c
00000180: ce20 75bc 24de 8a3c 9106 3bbc 9a8d 803d
00000190: 680e b6bc 8463 c6bc eac7 bb3d abfa a2bd
000001a0: d6dc 013e eb25 943b 4857 513d 1908 83bd
000001b0: 3e11 36bb df14 98bc 2806 bc3d 017c 14bd
000001c0: bb17 7c3b 6168 02be 26ae a23d 91f6 3dbd
000001d0: c26b 383d 33f2 b7bd 6f8c e4bc 4544 103d
000001e0: 60e2 c2bd 8f3e 8ebd c399 fe3d 90b4 d53d
000001f0: cdbc e9bc 5c79 8a3d 69c9 4cbc 25ed 4dbd
00000200: ce56 6d3c f04f 16bd b50b 993c 68f3 afbc
00000210: 5538 e0bc 530a 253d 17aa 93bc 849b 00bc
00000220: 5423 c3bc 2cbd 603c 914f 48bb e20c e73c
00000230: 8145 f53c 9f00 35bb 82e1 7f3b 67c1 6f3b
00000240: fe1c 9c3d 754a c0bd faa3 453d 0846 51bd
00000250: 2926 4a3d 70de 9d3c 029a 99bd c206 01be
00000260: 54e5 083d b5bd 1dbc 7555 9fbc 223b 07bd
00000270: bfc4 323d 539c 313d 8f10 bc3b 6333 283d
00000280: 94fc 2ebd 40a3 e7bc d5d0 93bc 4a96 a73c
00000290: c6dc ffbb 2c70 15bd 3b57 3ebb dd1c 1f3d
000002a0: 8210 0fbd 680c 443b cb08 973c f624 64bc
000002b0: 5e15 05bb f7c8 103d b2bd 293d ef86 493b
000002c0: c371 43bd 24aa f8bc 2e4d 83bc 523c 993c
000002d0: 9fe2 0c3d de93 063d 1ce4 0d3d 403d 00bd
000002e0: 6bbe 3fbc 7ced 3e3c a540 26bd 3685 dd3b
000002f0: ca0a 8eba a02f 23bd 5062 783c 81e4 273b
00000300: 2a32 993c 0f9a 0f3d 4a23 e33c 5ad6 c0bb
00000310: 22bb 433c c7bd aabc 6824 5c3c 56f4 5a3d
00000320: 5926 a6bc fd15 75bb 9717 4cbb fecc c5bb
00000330: c783 b43b 8d75 69bc eae0 9cbb 2296 7f3d
00000340: 5cf8 463d 7ea3 6c3d 2a38 45bd 36d5 aebb
00000350: 960d 223d 723b 42bd f69c eabb 1c72 41bc
00000360: 26ce 903d 8242 34bd c794 65bb 4994 3cbc
00000370: e47a cabc e911 88bc 97d3 df3c bce8 bbba
00000380: 7753 663c b261 03bd e9cd 19bd 0e86 11bd
00000390: 3d27 843c b4ce f9bc 82ad 003d fda7 7bbc
000003a0: a142 b63a ba47 77bc dc1e 823b 0063 8dbc
000003b0: aef2 063c 7ce0 25bb 2e2b d3bc dd7f 1fbd
000003c0: 2404 1139 4807 1d3c c0dc fcbb b5f8 89bb
000003d0: e528 8b3b 3ad8 1cbb 0994 21bd 876e ae3c
000003e0: 1460 cd3a 6ae0 dc3b 8215 a4bb 9fe2 93bb
000003f0: c873 50bb ae5f c7bd 4dd0 ffbd 581c eebc
0.03611381 -0.057172485 -0.013585158 0.0042204023 -0.03279994 -0.036076203 0.00546854 -0.09743338
0.19712901 0.00065748807 -0.005832414 -0.004234454 0.005394221 0.0019182524 -0.0052504186 0.06281024
0.016897699 -0.018290147 0.008385085 0.024119671 -0.009369634 0.02761899 -0.032845035 0.017630009
0.03728602 -0.020822031 -0.033852935 0.022396486 -0.031222371 0.028814547 -0.002700558 0.017948069
0.0132012395 -0.040776525 0.051788334 0.02617496 -0.004262782 -0.0037786865 0.0018079584 -9.932757e-05
-0.0013211773 -0.071294986 -0.0028461902 0.023354206 0.007380408 0.00026608826 0.0002944403 0.00021794497
9.7452816e-05 0.0006375474 0.00051760435 -0.005591219 0.031300064 0.006915476 -0.08202532 -0.12576017
-0.040017042 0.03162208 0.06752278 0.043015633 0.0005632211 0.046931267 0.044595473 0.023362244
-0.004607365 0.02342001 0.02162459 0.005986127 -0.0070894547 0.003756826 -0.018595355 0.01527023
0.06392001 0.10537434 0.011587369 -0.11736844 0.042364195 0.004830178 0.11473402 -0.0589483
-0.013650625 0.027038634 0.0049439957 0.016676709 0.011367502 0.026891468 0.03736472 0.03232329
-0.003987321 -0.031305656 -0.04041801 0.028301986 0.023087502 0.058694165 0.032485228 0.017349647
-0.0149614345 0.016951628 -0.01141514 0.06277008 -0.022223666 -0.024217375 0.0916899 -0.07957967
0.12681898 0.0045211217 0.05110863 -0.06398029 -0.0027781273 -0.01856464 0.09180862 -0.03625107
0.0038466293 -0.1273513 0.079433724 -0.046377722 0.04502464 -0.08981743 -0.027898995 0.035221357
-0.09515834 -0.06945526 0.124316715 0.1043483 -0.02853241 0.06761429 -0.012499192 -0.050274987
0.014486028 -0.036697328 0.01868234 -0.02147837 -0.027370611 0.04029305 -0.018025441 -0.007849578
-0.023820557 0.013716977 -0.0030565003 0.028204385 0.029940369 -0.0027618778 0.0039044325 0.0036583783
0.07622717 -0.093892016 0.048252083 -0.051092178 0.0493528 0.019271106 -0.07500078 -0.12600234
0.03342183 -0.009627749 -0.019449929 -0.033015378 0.043644663 0.043361973 0.0057392786 0.04106463
-0.042721346 -0.028276086 -0.018043915 0.020457406 -0.0078083007 -0.03648393 -0.0029043693 0.038845886
-0.034927852 0.0029914621 0.01843681 -0.013924828 -0.0020306925 0.035347905 0.041440673 0.0030750593
-0.047715914 -0.030354567 -0.016028013 0.01870552 0.03439581 0.03285586 0.03464137 -0.031308413
-0.011703114 0.0116533 -0.040588994 0.0067602647 -0.0010836956 -0.03984034 0.015160158 0.0025618377
0.018700678 0.03505903 0.027726788 -0.0058849277 0.011946471 -0.020842446 0.013436414 0.053455673
-0.020281957 -0.003739714 -0.003114199 -0.0060364 0.005508873 -0.014249218 -0.004787554 0.062399037
0.048576698 0.057773106 -0.048149265 -0.0053354753 0.039563738 -0.047419973 -0.0071598245 -0.011806991
0.0707057 -0.04400874 -0.0035031305 -0.011509963 -0.024716802 -0.016610103 0.027322574 -0.0014336328
0.0140579855 -0.03207559 -0.037549887 -0.035528235 0.016131992 -0.030494072 0.03141547 -0.015359876
0.0013905355 -0.015092785 0.003970964 -0.017259121 0.00823657 -0.0025310805 -0.025777426 -0.0389403
0.0001382982 0.0095842555 -0.007716745 -0.0042105564 0.0042468184 -0.0023932592 -0.039447818 0.021292938
0.0015668892 0.0067406194 -0.0050074467 -0.0045130993 -0.0031807292 -0.09735046 -0.12490902 -0.02906625
