latent-manifold-auto-encoder/autoencoder_mnist.pth (torch, 878802 bytes, 12 tensors)

encoder.0.weight f4 [128, 784]
-0.030005477 -0.02719067 -0.008249799 0.035108052 -0.021990832 0.0049524563 -0.014024974 -0.0036555147
0.0010326761 -0.029898547 -0.0027752903 -0.011090538 -0.021692151 -0.011591273 -0.0013121575 0.03125064
0.013169873 0.0290923 0.020847542 -0.02189524 0.031311557 0.021759626 -0.0084189605 0.005894874
0.017593551 -0.0012925097 0.029059723 -0.025418406 -0.009655932 0.001596106 -0.021687504 0.0104269
0.0057585896 -0.0031863006 -0.05825205 -0.04423194 0.011383747 0.021308614 -0.021259708 -0.084529765
-0.060491137 -0.038628664 0.039121464 0.1363367 0.20026371 0.15657711 -0.027001522 0.0055152383
0.07576392 0.08989176 0.03920927 0.026679859 0.02198906 0.014520544 -0.0331355 0.027543405
0.031211114 0.0043244194 0.022055339 -0.026613345 -0.073679335 -0.050841317 0.06545312 -0.03663876
0.008764879 -0.043677423 -0.10409247 -0.1166791 -0.08749826 -0.026048124 0.096976876 0.02395271
0.033385668 0.03562769 0.050145645 0.03501681 0.07881354 0.10314265 0.15940544 0.013047397
-0.0022866928 0.019381285 0.0018878665 0.020339591 0.0170938 0.024264464 0.041243773 0.036034323
-0.11308411 -0.011281328 -0.057483334 -0.045659825 -0.054863352 0.04635004 -0.004520534 -0.016893711
0.022048773 0.07646938 0.09676142 0.120714575 0.1063395 0.1227832 0.15152833 0.041276388
0.02425566 0.113799356 0.13204913 -0.04672025 0.002243695 0.028048497 -0.05162294 -0.031190086
-0.009248606 -0.0069402694 0.054937944 0.12226191 0.1111921 -0.056810994 -0.027945314 -0.021903085
-0.09623352 -0.05316736 -0.09141873 -0.060585856 0.0076778 -0.0054847663 0.068795204 0.08883361
0.11188417 0.028906414 0.026951762 0.010486523 -0.07376114 -0.018952077 -0.04818333 -0.02426079
-0.014696293 0.041661885 0.053434014 -0.00071857136 -0.033815462 0.0012861405 0.009060061 0.035932355
0.08398312 0.0035702826 0.014225287 -0.06875516 -0.057350084 -0.06998834 -0.11176746 -0.1037883
-0.012335488 -0.033501197 -0.0038018902 0.023937292 0.002573404 0.009305819 0.07222544 0.033593696
-0.05744957 -0.03128267 -0.03986378 0.027630094 -0.014562828 -0.023479046 -0.050872225 0.03970034
0.00093811756 -0.011915251 0.049731538 -0.0051284595 -0.0138826845 -0.041750893 0.050714362 0.033472046
-0.0059855087 -0.03739153 -0.083595596 -0.037263118 -0.05070612 0.02095077 -0.010151694 -0.021849263
-0.003143866 -0.014525907 0.00426384 0.057619534 0.026181916 0.07449021 0.02962987 0.07837056
0.111856334 -0.016324274 0.09209022 0.009624385 -0.023122847 -0.03554951 0.08229961 0.039356884
0.015373628 -0.029563382 0.047222216 0.059436448 -0.019785458 -0.0016589817 -0.036609795 0.0030821795
0.041244026 -0.020269074 -0.0045385286 0.021947552 0.025412729 0.024774112 0.044775102 0.041395552
0.034786083 0.06264687 0.114649996 0.1107648 0.05959611 0.038994823 0.00836692 0.0051074205
-0.051628772 -0.10396781 0.03471834 0.0051167714 0.012065363 0.04774245 0.039563723 0.049562186
-0.011525138 0.0235142 0.05886898 0.04634891 -0.016348107 -0.0023235732 -0.035990756 -0.030131511
-0.059040852 -0.00029117597 -0.026811048 -0.015155733 0.032904398 0.066580266 0.10272531 0.06145745
0.01919119 0.008826515 -0.03279859 -0.04861652 0.04876246 -0.09826021 -0.0015237536 0.04725159
00000000: 0cce f5bc f8be debc 2a2a 07bc 76cd 0f3d
00000010: 1e26 b4bc 3748 a23b 01c9 65bc 5c91 6fbb
00000020: dc5a 873a cced f4bc a5e1 35bb 17b5 35bc
00000030: bdb3 b1bc 53e9 3dbc b3fc abba ac00 003d
00000040: 73c6 573c fa52 ee3c 77c8 aa3c a55d b3bc
00000050: 8c40 003d 3e41 b23c aeef 09bc ca29 c13b
00000060: 5a20 903c 6e69 a9ba a80e ee3c 433a d0bc
00000070: ea33 1ebc 6e34 d13a fea9 b1bc 97d5 2a3c
00000080: 8db2 bc3b 41d1 50bb b499 6ebd 8d2c 35bd
00000090: e582 3a3c 678f ae3c d728 aebc f11d adbd
000000a0: 8ec5 77bd 1739 1ebd d43d 203d d99b 0b3e
000000b0: ee11 4d3e c055 203e 4c32 ddbc 2cb9 b43b
000000c0: 1d2a 9b3d 2c19 b83d e699 203d b88f da3c
000000d0: 6722 b43c 93e7 6d3c 17b9 07bd b5a2 e13c
000000e0: 73ae ff3c dcb3 8d3b 66ad b43c 3b04 dabc
000000f0: 31e5 96bd fc3e 50bd 490c 863d 8612 16bd
00000100: 919a 0f3c 19e7 32bd 6f2e d5bd 74f5 eebd
00000110: 4a32 b3bd e062 d5bc d09b c63d 7938 c43c
00000120: 69bf 083d 57ee 113d 8565 4d3d c96d 0f3d
00000130: fe68 a13d 743c d33d 2e3b 233e c0c4 553c
00000140: 57dc 15bb 80c5 9e3c 4a72 f73a 379f a63c
00000150: 4c08 8c3c 45c6 c63c 3bef 283d ba98 133d
00000160: a498 e7bd 52d5 38bc a573 6bbd cc05 3bbd
00000170: 65b8 60bd 8ad9 3d3d fd20 94bb ae64 8abc
00000180: a19f b43c fa9b 9c3d da2a c63d 3439 f73d
00000190: 86c8 d93d c275 fb3d 3e2a 1b3e 6e11 293d
000001a0: ceb3 c63c a30f e93d e337 073e bc5d 3fbd
000001b0: f50a 133b f6c5 e53c 9372 53bd 5a82 ffbc
000001c0: 7787 17bc 336b e3bb 9c06 613d 7464 fa3d
000001d0: afb8 e33d a5b2 68bd 92ed e4bc 196e b3bc
000001e0: 1416 c5bd 05c6 59bd be39 bbbd e028 78bd
000001f0: 0e96 fb3b 8eb9 b3bb 80e4 8c3d 65ee b53d
00000200: 8723 e53d 25cd ec3c f1c9 dc3c aacf 2b3c
00000210: 1510 97bd 6341 9bbc e25b 45bd 90be c6bc
00000220: b8c8 70bc a7a5 2a3d a0dd 5a3d 825e 3cba
00000230: 1582 0abd b793 a83a a670 143c ce2d 133d
00000240: 58ff ab3d 67fb 693b 2e11 693c 81cf 8cbd
00000250: ece7 6abd 0c56 8fbd 57e6 e4bd f68e d4bd
00000260: c91a 4abc 8d38 09bd 2229 79bb 2418 c43c
00000270: 8ea6 283b 6f77 183c eeea 933d 8b99 093d
00000280: 3e50 6bbd 4222 00bd 3448 23bd 8258 e23c
00000290: ed98 6ebc 2157 c0bc 655f 50bd d39c 223d
000002a0: 01ec 753a 2f38 43bc 4cb3 4b3d a30c a8bb
000002b0: 3374 63bc fc02 2bbd ddb9 4f3d fc19 093d
000002c0: 1622 c4bb dc27 19bd 2b34 abbd 36a1 18bd
000002d0: 38b1 4fbd f3a0 ab3c 4a53 26bc 3afd b2bc
000002e0: 5209 4ebb 12fe 6dbc afb7 8b3b 7602 6c3d
000002f0: 757b d63c 538e 983d 57ba f23c bf80 a03d
00000300: ef14 e53d 7cba 85bc cc99 bc3d 99af 1d3c
00000310: 206c bdbc 5d9c 11bd b38c a83d af34 213d
00000320: abe1 7b3c e82e f2bc 156c 413d a273 733d
00000330: 1d15 a2bc 3072 d9ba 27f4 15bd 64fe 493b
00000340: 7fef 283d 540b a6bc f0b7 94bb 5acb b33c
00000350: 5b2e d03c 14f3 ca3c 1966 373d 628e 293d
00000360: da7b 0e3d 014d 803d 9ecd ea3d a8d8 e23d
00000370: 0d1b 743d 09b9 1f3d 6815 093c 265c a73b
00000380: b178 53bd 13ed d4bd d134 0e3d 97aa a73b
00000390: cdad 453c 968d 433d 920d 223d b801 4b3d
000003a0: efd3 3cbc daa0 c03c 9920 713d 5bd8 3d3d
000003b0: 77ec 85bc 1747 18bb 0b6b 13bd 5cd6 f6bc
000003c0: d2d4 71bd faa8 98b9 d8a2 dbbc c04f 78bc
000003d0: c3c6 063d 3c5b 883d a661 d23d cfba 7b3d
000003e0: d836 9d3c 169d 103c d057 06bd 1e22 47bd
000003f0: 25bb 473d a63c c9bd b0b8 c7ba e28a 413d

encoder.0.bias f4 [128]
0.14271821 0.19734712 -0.041041493 0.19482654 0.1435769 -0.054044038 0.1323403 -0.005072793
-0.001831845 0.23591743 -0.02549132 0.15119955 0.078167215 0.008325682 -0.03453474 0.0043924944
0.30724618 -0.033194683 -0.014871143 -0.0965101 0.16465734 0.11341433 0.18451284 -0.030054225
0.27559182 0.11791749 0.018620433 -0.27120215 0.1909918 0.085161366 0.23944029 0.10877209
0.08755296 -0.02368153 -0.013531001 0.11922484 -0.04079531 -0.0010498018 -0.028169941 -0.016556296
-0.1526897 0.0023543402 -0.016823128 -0.06957755 -0.018420808 0.3770514 -0.020204008 0.17256682
0.1453837 -0.015982788 -0.01122625 -0.007000884 -0.026815265 0.098963045 0.12706105 0.3669108
0.38938853 0.008510291 0.014208284 0.0013532714 0.17283171 -0.030988246 0.42584333 -0.0052437866
-0.15067683 0.01741637 -0.002717278 0.015215987 0.015876189 -0.04801605 -0.012217002 0.17304304
-0.01861812 0.20062996 -0.022257889 -0.023767415 0.2118803 0.26425156 0.020614438 0.3498302
0.09596146 0.017731074 0.28175592 -0.1160785 0.011707823 0.0139210485 0.039997775 0.00952372
0.2988086 0.15958807 0.039582156 -0.08694482 -0.20210509 -0.20610964 -0.09001666 0.015482091
0.28968802 0.054402724 0.20513523 0.12157105 0.13134503 -0.005295169 0.015313603 0.15380728
0.08668954 0.006873553 -0.039679646 0.015628593 0.42718092 -0.021865312 -0.011038063 0.113829985
0.3106922 -0.034646336 -0.02818954 0.00414261 0.06839317 0.52378124 0.022460923 0.09755334
0.0979257 0.049783368 -0.024088826 0.0019380922 0.1113394 0.20985004 0.13175094 0.09711802
00000000: b924 123e 5d15 4a3e 201b 28bd 9c80 473e
00000010: d305 133e 485d 5dbd 3784 073e ac39 a6bb
00000020: 851a f0ba 5794 713e 2cd3 d0bc 0ed4 1a3e
00000030: 2216 a03d 7168 083c 4d74 0dbd eaee 8f3b
00000040: 5f4f 9d3e 26f7 07bd 18a6 73bc 16a7 c5bd
00000050: ef9b 283e c645 e83d eff0 3c3e 4734 f6bc
00000060: 5f1a 8d3e ba7e f13d e189 983c 02db 8abe
00000070: 5b93 433e 1569 ae3d d62f 753e e7c3 de3d
00000080: f74e b33d c5ff c1bc 22b1 5dbc 272c f43d
00000090: fc18 27bd 8199 89ba a6c4 e6bc 12a1 87bc
000000a0: b05a 1cbe 464b 1a3b a8d0 89bc ad7e 8ebd
000000b0: 3ce7 96bc e20c c13e e082 a5bc 5bb5 303e
000000c0: 77df 143e 56ee 82bc 4eee 37bc ac67 e5bb
000000d0: b0ab dbbc 23ad ca3d 4b1c 023e bbdb bb3e
000000e0: ef5d c73e bf6e 0b3c ddc9 683c 4160 b13a
000000f0: ccfa 303e 10db fdbc 2308 da3e 12d4 abbb
00000100: 074b 1abe c6ac 8e3c 5c14 32bb 7a4c 793c
00000110: c80e 823c 7aac 44bd d229 48bc 3232 313e
00000120: 0785 98bc f171 4d3e 2d56 b6bc e2b3 c2bc
00000130: 26f7 583e fb4b 873e 9cdf a83c f21c b33e
00000140: 7187 c43d c240 913c 5042 903e 91ba edbd
00000150: 2bd2 3f3c 1c15 643c b5d4 233d 6009 1c3c
00000160: 71fd 983e 0e6b 233e e620 223d 2010 b2bd
00000170: a3f4 4ebe 680e 53be a85a b8bd 99a8 7d3c
00000180: fd51 943e 64d5 5e3d f80e 523e 3efa f83d
00000190: 507f 063e 1983 adbb e8e5 7a3c a87f 1d3e
000001a0: 498a b13d 8b3b e13b 2087 22bd 8907 803c
000001b0: 75b7 da3e e21e b3bc fed8 34bc b21f e93d
000001c0: 0c13 9f3e 51e9 0dbd c0ed e6bc bbbe 873b
000001d0: b811 8c3d 8716 063f f8ff b73c 0cca c73d
000001e0: 458d c83d a5e9 4b3d ee55 c5bc 9507 fe3a
000001f0: e905 e43d eee2 563e b8e9 063e d0e5 c63d

encoder.2.weight f4 [64, 128]
-0.002315071 0.026224943 -0.01207402 0.06552349 -0.024411533 -0.14017701 -0.034212857 -0.0053698085
-0.054970697 0.15361562 0.075692266 -0.05213705 0.1823436 0.059690535 0.061470907 -0.12150598
-0.003451383 -0.06026549 -0.08244891 -0.12520379 -0.10546834 -0.1536411 -0.054042045 0.033463713
-0.13052934 -0.012232859 -0.13262208 -0.27801713 0.040202953 -0.03934599 0.050530467 0.09672599
0.0891252 -0.006356027 0.08424903 0.13042681 0.0021624286 -0.016848672 -0.36660078 -0.09063156
-0.31286308 0.060859155 0.014437945 0.83489746 -0.015140319 0.157068 -0.06200211 0.033237565
-0.18072797 -0.030996928 0.023006525 -0.038674247 0.025991924 0.10193749 0.219938 -0.08104618
-0.28647006 0.014932785 0.1093948 -0.1332755 0.08439213 -0.07181336 0.10429752 -0.085992806
-0.08722805 0.10413093 -0.014976785 -0.06879904 0.024853216 0.07846851 -0.020638471 -0.07524292
-0.05585243 0.049271524 0.04587754 -0.002111216 -0.2995522 0.19351771 -0.044718876 0.026370797
-0.0057081995 0.0016610716 -0.35898975 -0.1752178 -0.070841506 -0.0012877262 0.26355332 0.0039579556
0.028449507 -0.21272092 -0.15380962 -0.091328256 -0.17245203 0.3300351 -0.12315369 -0.06420009
-0.07580738 0.064233124 -0.083564974 0.104115084 -0.05259196 -0.08794377 -0.07413768 -0.17345162
0.1046479 0.02117771 0.04248654 -0.22017124 0.18268259 -0.017337896 -0.066216044 0.13591275
0.04032774 -0.0074537904 0.08695796 -0.03533829 -0.081375934 0.089070864 0.04162756 -0.00874497
0.003900648 0.013800731 0.056294043 -0.0031255297 0.03094726 -0.0967044 0.081011176 -0.01128057
0.008250386 0.11915843 -0.07317379 0.10627939 -0.04698382 -0.090718284 -0.064706236 0.091415174
0.033066295 -0.016199404 -0.026320942 -0.06434306 0.047236342 0.064704746 0.069198236 0.038054656
-0.0332146 0.006981986 0.025834884 -0.013712431 0.05713361 -0.027464919 -0.16725042 0.014860492
-0.04858944 -0.029720891 -0.05626195 0.054379974 -0.0012757562 -0.035322182 0.10165431 0.09201301
0.11088291 -0.008591889 -0.009127187 0.09219839 0.048678808 0.09288114 0.25887886 0.09126789
-0.003954721 0.08901866 0.007286718 -0.6357031 -0.012711304 -0.06774295 0.094693825 -0.046833053
-0.00839838 0.09387043 -0.059329793 -0.011678715 0.03389698 0.039011657 0.035391677 -0.04730557
0.043543242 0.056514766 0.045163315 0.035924412 0.11003666 0.082615145 0.040564217 -0.04970135
-0.05319313 -0.041501015 -0.018614383 0.05015082 0.0396722 0.1794253 0.0926979 0.041970026
-0.013404215 0.1185539 -0.05354074 -0.06839609 0.03800537 -0.051270355 -0.004207506 -0.028652715
-0.058199644 0.07057677 0.130781 -0.01303167 0.04417594 -0.023594594 -0.11905318 -0.044314202
-0.018180063 0.15463035 0.07683433 0.08132647 -0.078795515 -0.23473985 0.14737071 0.069944
0.006639133 0.017949725 0.08328927 0.056928046 0.051979333 0.0939578 0.04783273 -0.07739992
-0.06070343 0.06667675 0.05457891 0.060375452 -0.029147184 0.00025061838 -0.021447297 0.009760448
-0.061790854 -0.07728313 0.018240808 -0.028376987 -0.07462695 -0.051114712 0.02640656 0.096079975
0.066914916 0.007540727 -0.033783253 -0.076472886 0.11124931 -0.021139646 0.07031844 -0.035799798
00000000: 72b8 17bb b1d5 d63c 1cd2 45bc 2e31 863d
00000010: b2fa c7bc 908a 0fbe c822 0cbd 38f5 afbb
00000020: f428 61bd 6a4d 1d3e 8c04 9b3d a98d 55bd
00000030: 48b8 3a3e 107e 743d ebc8 7b3d 21d8 f8bd
00000040: 9930 62bb f2d8 76bd f9da a8bd 6c35 00be
00000050: c9ff d7bd 1854 1dbe 315b 5dbd 3f11 093d
00000060: 7ca9 05be 546c 48bc 15ce 07be 4358 8ebe
00000070: daab 243d 4329 21bd 09f9 4e3d 4718 c63d
00000080: 4687 b63d 3846 d0bb c18a ac3d 9b8e 053e
00000090: 88b7 0d3b 3a06 8abc 19b3 bbbe 0a9d b9bd
000000a0: 972f a0be 7347 793d 218d 6c3c d7bb 553f
000000b0: 1a0f 78bc 6fd6 203e edf5 7dbd 1d24 083d
000000c0: c110 39be 45ed fdbc 2e78 bc3c e368 1ebd
000000d0: 04ed d43c 9ac4 d03d 6d37 613e 8afb a5bd
000000e0: 34ac 92be a4a8 743c 620a e03d 5f79 08be
000000f0: c8d5 ac3d e212 93bd f099 d53d ff1c b0bd
00000100: 9fa4 b2bd 9942 d53d 3061 75bc 83e6 8cbd
00000110: f998 cb3c 19b4 a03d 0312 a9bc f618 9abd
00000120: 85c5 64bd f0d0 493d 16ea 3b3d 545c 0abb
00000130: e85e 99be 8229 463e 242b 37bd 9207 d83c
00000140: d90b bbbb 50b8 d93a 81cd b7be 4c6c 33be
00000150: 5a15 91bd ecc8 a8ba 76f0 863e bdb1 813b
00000160: f10e e93c 83d3 59be 4580 1dbe 4f0a bbbd
00000170: 4497 30be 5cfa a83e 0038 fcbd 567b 83bd
00000180: e640 9bbd a88c 833d 1d24 abbd 4a3a d53d
00000190: ab6a 57bd dd1b b4bd 7fd5 97bd 4d9d 31be
000001a0: a351 d63d e07c ad3c 5e06 2e3d 9274 61be
000001b0: 2511 3b3e 3408 8ebc 479c 87bd b62c 0b3e
000001c0: b32e 253d ed3e f4bb 0417 b23d e2be 10bd
000001d0: 6da8 a6bd c96a b63d a981 2a3d 1047 0fbc
000001e0: 04a2 7f3b 761c 623c 9594 663d b0d5 4cbb
000001f0: 1c85 fd3c f50c c6bd 30e9 a53d 24d2 38bc
00000200: a12c 073c 5609 f43d 24dc 95bd 02a9 d93d
00000210: 1b72 40bd 82ca b9bd b484 84bd e137 bb3d
00000220: 8670 073d 9db4 84bc 049f d7bc 4bc6 83bd
00000230: e57a 413d ec83 843d ceb7 8d3d 33df 1b3d
00000240: 080c 08bd 25c9 e43b aea3 d33c 1baa 60bc
00000250: ef04 6a3d 1cfe e0bc b243 2bbe 6c79 733c
00000260: b805 47bd 3a79 f3bc ee72 66bd 89bd 5e3d
00000270: 4637 a7ba fead 10bd 2330 d03d 5171 bc3d
00000280: 9416 e33d ffc4 0cbc 328a 15bc 82d2 bc3d
00000290: 6e63 473d 7838 be3d c58b 843e a9ea ba3d
000002a0: 9b96 81bb 6a4f b63d 6cc5 ee3b 70bd 22bf
000002b0: 1343 50bc d1bc 8abd d6ee c13d 04d4 3fbd
000002c0: 5c99 09bc 243f c03d cc03 73bd 1558 3fbc
000002d0: 8fd7 0a3d b0ca 1f3d ddf6 103d 7cc3 41bd
000002e0: 665a 323d 077c 673d 2bfd 383d 7a25 133d
000002f0: e75a e13d 2132 a93d aa26 263d a593 4bbd
00000300: 0ae1 59bd f8fc 29bd 317d 98bc f26a 4d3d
00000310: 517f 223d 44bb 373e 66d8 bd3d c3e8 2b3d
00000320: 5a9d 5bbc 63cc f23d 894d 5bbd 4013 8cbd
00000330: 85ab 1b3d dd00 52bd 1edf 89bb 19b9 eabc
00000340: c062 6ebd 8e8a 903d 74eb 053e c982 55bc
00000350: d5f1 343d 7349 c1bc 27d2 f3bd cf82 35bd
00000360: 5bee 94bc 6b57 1e3e 515b 9d3d 7e8e a63d
00000370: 8b5f a1bd a55f 70be 59e8 163e cd3e 8f3d
00000380: 168d d93b 4d0b 933c 9193 aa3d 622d 693d
00000390: 48e8 543d f26c c03d 41ec 433d d983 9ebd
000003a0: 29a4 78bd d28d 883d 238e 5f3d 404c 773d
000003b0: 13c6 eebc 6e65 8339 3eb2 afbc 49ea 1f3c
000003c0: 6818 7dbd 9e46 9ebd bf6d 953c db76 e8bc
000003d0: 04d6 98bd a95d 51bd 9252 d83c 94c5 c43d
000003e0: b00a 893d 3418 f73b 4f60 0abd d19d 9cbd
000003f0: aed6 e33d 0d2d adbc 1d03 903d cfa2 12bd

encoder.2.bias f4 [64]
0.3023435 0.0006121303 -0.023864642 0.07093645 -0.041577403 0.2510697 0.018586949 0.107654035
-0.10664047 -0.008046617 0.11700053 -0.045144465 -0.018036908 -0.053845905 -0.03220966 0.27234006
-0.07053429 0.11192104 0.13711907 0.07088545 0.20125288 0.16587074 -0.24954669 0.09200335
-0.0046964264 0.034109034 -0.014607311 0.027005585 0.09472662 0.0036620551 0.048688956 0.007708667
-0.04535208 0.13540676 -0.08058178 0.30866998 0.2348052 -0.014961858 -0.0059812753 -0.02442303
0.10274203 -0.050757147 0.108412236 -0.2551625 -0.07851297 0.086833045 0.120700814 0.11377399
-0.11357074 0.1081295 0.29131812 -0.009709324 0.028759154 -0.023660213 0.04061149 0.07679181
-0.09834878 -0.093335286 0.0152295595 0.015950717 -0.2006331 0.2733991 -0.06384513 0.44063884
00000000: c4cc 9a3e 5e77 203a c87f c3bc 2147 913d
00000010: 114d 2abd 358c 803e a843 983c b879 dc3d
00000020: 5266 dabd f5d5 03bc f99d ef3d 67e9 38bd
00000030: 23c2 93bc 868d 5cbd 47ee 03bd 2870 8b3e
00000040: 4874 90bd dc36 e53d f168 0c3e 642c 913d
00000050: 3c15 4e3e 05da 293e 2b89 7fbe 416c bc3d
00000060: 7be4 99bb eab5 0b3d 8153 6fbc d13a dd3c
00000070: 0800 c23d 17ff 6f3b 126e 473d fc98 fc3b
00000080: 1ac3 39bd 12a8 0a3e 0f08 a5bd fe09 9e3e
00000090: c670 703e 9522 75bc 93fe c3bb ce12 c8bc
000000a0: 6a6a d23d bae6 4fbd 3c07 de3d a9a4 82be
000000b0: 68cb a0bd 86d5 b13d fd31 f73d 5602 e93d
000000c0: c797 e8bd 0073 dd3d a627 953e db13 1fbc
000000d0: 5198 eb3c 10d3 c1bc 3c58 263d 0645 9d3d
000000e0: 166b c9bd 9226 bfbd 6785 793c 14ab 823c
000000f0: c372 4dbe f8fa 8b3e 3cc1 82bd 6a9b e13e

encoder.4.weight f4 [2, 64]
0.38861483 -0.1620945 0.069579095 -0.10290702 -0.07040057 0.11441582 0.09416726 -0.01782828
0.047697175 0.04673464 -0.06826126 0.04216579 0.08806466 0.12364506 -0.09215028 0.09209214
0.027688615 -0.019979242 -0.12704621 -0.09705739 -0.26418942 -0.17274939 -0.43229043 0.4241054
0.013869276 -0.06528074 0.07695246 0.054286957 -0.085410826 -0.17977142 -0.10192818 -0.14661358
0.09376695 -0.13040277 -0.048109397 -0.6836186 -0.3423416 -0.0373276 0.004294195 -0.22960144
0.26436257 -0.055988874 -0.014570443 0.28608337 0.025453558 0.06355762 -0.14101642 0.10525437
0.051317878 -0.16313267 -0.50545895 0.05384613 0.092260346 0.10495973 0.11025269 -0.1954834
-0.13446684 -0.11873498 0.043552376 0.029634254 0.13722368 0.037840575 0.010679987 0.1596516
0.10190381 -0.0844085 -0.11484626 -0.08898192 0.08971564 -0.17220469 -0.005873023 -0.107934475
0.067921914 0.08553724 -0.11108504 0.027516844 0.061682492 0.00889302 0.07833151 -0.23787218
0.019223928 -0.101722576 -0.12126956 -0.14759655 -0.28228328 -0.05134323 0.4456655 0.43165272
-0.018058492 -0.13791092 0.046988264 -0.07317989 -0.06509724 0.03686639 -0.1725742 -0.081255205
0.06224183 -0.06833918 0.024572298 0.48541462 0.60857975 -0.17150322 0.091233596 0.02456539
0.3119077 0.01646449 -0.11565327 -0.08033732 0.013196745 -0.11583027 -0.10081734 -0.08906665
0.09978417 -0.112293 0.6033729 -0.061224144 0.08209704 0.08766891 0.07628476 0.0045420947
0.102479585 0.07232407 -0.1576301 -0.06794704 0.2545584 -0.22625181 -0.013261845 -0.15909036
00000000: 86f8 c63e 1afc 25be 7c7f 8e3d eac0 d2bd
00000010: 2d2e 90bd d752 ea3d c4da c03d 9d0c 92bc
00000020: 1d5e 433d d26c 3f3d 8fcc 8bbd 09b6 2c3d
00000030: 3f5b b43d 9f39 fd3d 49b9 bcbd ce9a bc3d
00000040: 3cd3 e23c 82ab a3bc 6718 02be 06c6 c6bd
00000050: d643 87be 37e5 30be 2c55 ddbe 5824 d93e
00000060: f63b 633c e9b1 85bd 4099 9d3d 005c 5e3d
00000070: dfeb aebd 0016 38be b9bf d0bd df21 16be
00000080: e308 c03d 4e88 05be 5c0e 45bd a101 2fbf
00000090: 6647 afbe d3e4 18bd 52b6 8c3b a41c 6bbe
000000a0: 885a 873e 9754 65bd deb8 6ebc 8579 923e
000000b0: fb83 d03c 7f2a 823d 9c66 10be 9a8f d73d
000000c0: b232 523d 400c 27be c265 01bf c28d 5c3d
000000d0: fef2 bc3d 20f5 d63d 2acc e13d cd2c 48be
000000e0: adb1 09be 532b f3bd fa63 323d 89c3 f23c
000000f0: 5d84 0c3e b8fe 1a3d 1dfb 2e3c b67b 233e
00000100: f2b2 d03d 5dde acbd 8434 ebbd 273c b6bd
00000110: d5bc b73d 6d56 30be 7d72 c0bb c00c ddbd
00000120: a51a 8b3d 262e af3d 8e80 e3bd 016b e13c
00000130: c8a6 7c3d 08b4 113c 456c a03d c494 73be
00000140: 807b 9d3c ed53 d0bd 2d5c f8bd 8d23 17be
00000150: 6f87 90be 474d 52bd 452e e43e 9601 dd3e
00000160: 67ef 93bc 8538 0dbe c476 403d 57df 95bd
00000170: b451 85bd 3601 173d 4bb7 30be 2169 a6bd
00000180: 4af1 7e3d 69f5 8bbd d84b c93c 4488 f83e
00000190: e2cb 1b3f 8a9e 2fbe aed8 ba3d 5b3d c93c
000001a0: 5eb2 9f3e 8ae0 863c 9fdb ecbd e587 a4bd
000001b0: 2937 583c 6c38 edbd 5279 cebd 9368 b6bd
000001c0: a55b cc3d dff9 e5bd a576 1a3f 2bc6 7abd
000001d0: 7e22 a83d c28b b33d 2f3b 9c3d dad5 943b
000001e0: d1e0 d13d a41e 943d c969 21be d127 8bbd
000001f0: 7b55 823e 8eae 67be 3648 59bc 95e8 22be

encoder.4.bias f4 [2]
-0.1351813 0.05903686
00000000: f76c 0abe a2d0 713d

decoder.0.weight f4 [64, 2]
-0.0047311373 -0.2167381 0.30997142 0.6295475 0.4819564 -0.11378949 -0.49799633 0.9720078
-0.04255577 0.10220734 -0.49942285 0.051330425 0.15329583 -0.44608328 0.6132267 -0.45441222
0.38194972 -0.6573713 -0.045473374 -0.35054493 0.265429 -0.60930306 0.12712668 -0.38711023
0.2396052 0.0007360938 -0.6219605 0.4088366 -0.23830366 -0.5717637 0.77468365 0.040913317
0.51378876 -0.47677395 -0.7615543 0.6641302 -0.38931373 -0.10504468 -0.18556581 -0.5269571
-0.07492503 -0.43980286 -0.54662657 0.3366055 -0.5454781 0.09762337 -0.18315145 -0.44969112
0.8965772 -0.061656073 0.6464213 -0.602051 1.1484299 -0.18344939 0.075298525 -0.5300681
0.020166203 0.11604776 -0.41893372 -0.39806175 -0.65228695 -0.048231807 -0.4828785 0.2603074
-0.041038875 0.79676235 -0.6281222 -0.10833756 -0.6153336 0.2389621 -0.07330874 -0.18174925
-0.19338341 -0.69643515 -0.68011934 -0.22562829 1.1869698 -0.03578796 0.69832027 -0.025824625
0.48950028 0.025798276 -0.46679056 -0.06317276 1.026851 0.32827556 0.5531681 0.28700173
-0.023468016 -0.3027178 0.4522935 -0.5684213 -0.15553375 -0.011185743 -0.6402083 -0.05552459
0.81877357 0.17999184 -0.078379504 -0.140295 0.8187366 0.6845456 -0.78010964 0.46608698
0.10516553 0.5686101 -0.23236126 1.2003539 0.10974396 -0.5741441 -0.41006437 -0.23695241
-0.6696763 0.3488794 -0.086349666 0.64227754 0.19328934 -0.14445357 -0.6774473 0.57054114
-0.15474865 0.33331046 -0.14411451 0.6282402 0.015816823 -0.5010159 -0.3404188 0.6778254
00000000: a807 9bbb 98f0 5dbe 93b4 9e3e 062a 213f
00000010: fdc2 f63e 770a e9bd 60f9 febe 81d5 783f
00000020: f64e 2ebd 1552 d13d 5ab4 ffbe da3f 523d
00000030: 95f9 1c3e 0765 e4be 6dfc 1c3f b8a8 e8be
00000040: ea8e c33e 7c49 28bf 4a42 3abd a07a b3be
00000050: 4fe6 873e 49fb 1bbf 7f2d 023e 5033 c6be
00000060: 115b 753e 6bf6 403a ce38 1fbf 0853 d13e
00000070: e005 74be 1b5f 12bf ab51 463f b994 273d
00000080: a987 033f b71b f4be 39f5 42bf 7004 2a3f
00000090: 2154 c7be aa21 d7bd f704 3ebe a9e6 06bf
000000a0: 4b72 99bd d72d e1be b8ef 0bbf 8e57 ac3e
000000b0: 74a4 0bbf c3ee c73d 0e8c 3bbe ea3d e6be
000000c0: 1586 653f 148b 7cbd de7b 253f 0420 1abf
000000d0: c0ff 923f 28da 3bbe 1d36 9a3d 8bb2 07bf
000000e0: 9833 a53c 73aa ed3d 7b7e d6be c0ce cbbe
000000f0: 47fc 26bf b78e 45bd da3b f7be 0347 853e
00000100: 6118 28bd 9ef8 4b3f 9ecc 20bf 15e0 ddbd
00000110: 8186 1dbf 7bb2 743e e522 96bd 7a1c 3abe
00000120: 4d06 46be 9349 32bf 4d1c 2ebf 1a0b 67be
00000130: a0ee 973f 6596 12bd 1ec5 323f 2a8e d3bc
00000140: c89f fa3e e856 d33c 2cff eebe b860 81bd
00000150: db6f 833f bc13 a83e 6d9c 0d3f e4f1 923e
00000160: ff3f c0bc d4fd 9abe 0393 e73e 0f84 11bf
00000170: 3d44 1fbe 6844 37bc b1e4 23bf c16d 63bd
00000180: 259b 513f c84f 383e 6f85 a0bd 7ea9 0fbe
00000190: b998 513f 613e 2f3f 44b5 47bf f4a2 ee3e
000001a0: 0761 d73d 6e90 113f 1cf0 6dbe 32a5 993f
000001b0: 71c1 e03d 1cfb 12bf f5f3 d1be a7a3 72be
000001c0: e86f 2bbf 52a0 b23e 18d8 b0bd 4d6c 243f
000001d0: a4ed 453e a3eb 13be 306d 2dbf fc0e 123f
000001e0: 6e76 1ebe aba7 aa3e c192 13be 5ad4 203f
000001f0: 4892 813c 9442 00bf 5f4b aebe f785 2d3f

decoder.0.bias f4 [64]
0.8010017 0.62950724 0.8619969 0.32911298 0.9154241 0.5503789 -0.10219306 -0.65638703
0.5411521 -0.24474524 -0.6472026 -0.90200603 0.40354627 -0.40564868 -0.8900474 -0.4547345
0.8086831 0.18485457 -0.8378117 0.27071527 -0.59151435 0.6115193 0.7038504 -0.25618377
-0.7801138 0.6675755 0.48697865 0.4139297 0.80349493 0.32741937 0.32371402 -0.3289827
0.25196734 -0.3855793 0.05550981 -0.5214129 -0.019528525 0.6391079 -0.32417354 0.69604236
0.30424416 -0.5061774 -0.5387713 0.67981654 0.78153616 0.3443758 0.139448 -0.65289724
0.14447834 0.37887973 -0.17110294 0.98327774 -0.5744749 0.19081937 0.7848444 0.2789311
-0.7309756 -0.14203818 0.61090994 0.024203863 -1.0629064 -0.58903515 -0.057176918 0.44934404
00000000: 730e 4d3f 6327 213f d4ab 5c3f 7f81 a83e
00000010: 3c59 6a3f a2e5 0c3f 984a d1bd fb08 28bf
00000020: f288 0a3f 7f9e 7abe 12af 25bf dee9 66bf
00000030: 9e9d ce3e 2fb1 cfbe 25da 63bf f6d2 e8be
00000040: db05 4f3f 844a 3d3e d47a 56bf 319b 8a3e
00000050: 7c6d 17bf 878c 1c3f 8a2f 343f 852a 83be
00000060: 8ab5 47bf 3ae6 2a3f 4455 f93e 98ee d33e
00000070: d8b1 4d3f 83a3 a73e d8bd a53e 6c70 a8be
00000080: dd01 813e a66a c5be 415e 633d 517b 05bf
00000090: 49fa 9fbc 939c 233f 13fa a5be d52f 323f
000000a0: e4c5 9b3e d894 01bf eaec 09bf 7508 2e3f
000000b0: c112 483f 0652 b03e 75cb 0e3e 4624 27bf
000000c0: 21f2 133e 86fc c13e 9c35 2fbe 17b8 7b3f
000000d0: c910 13bf 2766 433e 90eb 483f 0fd0 8e3e
000000e0: 3821 3bbf 7572 11be 9864 1c3f 2e47 c63c
000000f0: 510d 88bf 02cb 16bf 5832 6abd 6c10 e63e

decoder.2.weight f4 [128, 64]
-0.10722883 -0.049129665 -0.012247533 -0.070296094 -0.056295216 -0.054208353 -0.09042941 0.021540597
0.052338228 -0.019602373 0.035144597 -0.033869833 0.03445427 0.004597068 -0.03086558 0.078465655
0.0948257 -0.1166524 0.11504559 -0.109249845 0.03817846 -0.0360509 0.020417199 -0.10421163
-0.01668024 -0.08320621 -0.09192145 -0.11929312 0.0007504672 -0.11461581 -0.07203667 -0.06903808
-0.100461975 -0.07659656 -0.08821659 -0.016316444 -0.09708357 -0.028052017 -0.06668037 -0.11392814
0.04403679 0.11005461 -0.050675407 -0.07793634 -0.10181385 0.09540331 0.033871233 0.06229119
0.10350454 0.10925405 0.119381204 0.012269616 -0.04288946 -0.057222217 -0.05486664 -0.010946736
0.1133019 -0.0023327023 0.04832104 0.020747945 -0.0009082854 -0.027286857 0.08752969 -0.07917632
0.048346877 -0.25708136 -0.16602151 -0.0034741194 0.13179442 -0.14228979 0.15586981 0.25952724
0.12493909 -0.06507739 0.09504068 0.19214089 -0.1546592 -0.041143857 0.13042504 0.25903702
0.027389215 0.1047054 0.08061822 -0.06600383 -0.0014079586 0.02549616 -0.11077219 0.028160635
0.10303384 -0.18628533 -0.37111837 0.07757964 0.068517834 -0.06505315 0.04848538 0.0074317236
-0.14746736 -0.00695004 -0.1045631 0.071725056 0.021364793 -0.12533373 -0.053658396 -0.051720753
-0.027231133 0.23403935 0.23002984 -0.06870428 0.05952835 -0.113937475 -0.08435143 0.083482526
0.20334879 0.09072216 0.20231761 -0.0022617343 -0.19068785 -0.011124965 -0.08734986 0.08651347
0.009551302 0.09779044 -0.14590988 0.17758083 -0.08318708 -0.0255319 0.05656524 0.17077014
0.13945961 -0.02099147 0.16003889 0.05171091 -0.05899013 0.13678609 -0.0917688 0.0033320657
0.0460825 0.049563628 -0.18640393 -0.2651139 0.14073823 -0.10757984 -0.14494988 -0.27998865
0.003223577 0.042841475 -0.14749807 0.11058402 -0.12601946 0.07225149 0.16236302 0.10919013
-0.14578348 0.16001318 0.24542786 0.1424804 0.0090398155 -0.027918523 0.094687514 0.12387079
0.22485735 -0.15033396 -0.04682849 -0.17351924 -0.024942933 -0.058951583 -0.0721463 0.14802459
-0.053147912 -0.14523877 -0.22448264 -0.049511813 0.06534169 -0.005472892 0.15120265 -0.08631943
-0.14517282 0.111077964 0.011030804 0.1526149 0.0422596 -0.06486951 -0.00817535 -0.05932331
-0.10495715 -0.066368796 0.18163139 -0.087876156 0.046412192 0.110370554 -0.085510716 0.056307297
-0.16335997 -0.2671235 -0.099079356 0.28648075 0.34208345 -0.012182388 -0.13579118 0.38153282
0.14120707 -0.056947507 0.004818624 0.2567579 -0.30921885 0.116936624 -0.048905686 0.23024505
-0.026528772 0.10006262 0.05216271 -0.12920967 0.0552946 0.17318168 -0.01287122 0.06500241
0.3737021 0.10354803 -0.26485017 0.039742675 -0.020095527 -0.017938523 -0.006909896 -0.012246867
-0.20715055 -0.031534415 -0.09932681 0.12854479 0.029928628 -0.07113186 0.14423268 -0.26684517
-0.0113374535 0.14905079 0.185818 -0.16597222 -0.15803604 0.123039074 0.06472061 0.11801069
0.15132484 -0.14848374 -0.024590101 -0.02983514 -0.24866706 -0.2101209 0.0055036796 -0.12154028
0.096325696 -0.1739701 0.09415032 -0.028338134 -0.011159545 -0.28940034 -0.014955868 0.34331936
00000000: ca9a dbbd 303c 49bd e0a9 48bc 66f7 8fbd
00000010: d095 66bd 9409 5ebd 0e33 b9bd e875 b03c
00000020: 9c60 563d 2895 a0bc c8f3 0f3d 18bb 0abd
00000030: ec1f 0d3d 00a3 963b d0d9 fcbc 9ab2 a03d
00000040: fa33 c23d 74e7 eebd 069d eb3d 62be dfbd
00000050: 0461 1c3d 1caa 13bd f841 a73c e86c d5bd
00000060: 00a5 88bc 0468 aabd 5041 bcbd f44f f4bd
00000070: 00bb 443a b2bb eabd f687 93bd d663 8dbd
00000080: 02bf cdbd a8de 9cbd e6aa b4bd 10aa 85bc
00000090: c0d3 c6bd 58cd e5bc b88f 88bd 2853 e9bd
000000a0: ec5f 343d 5064 e13d 0491 4fbd 169d 9fbd
000000b0: c883 d0bd d062 c33d 90bc 0a3d 0c25 7f3d
000000c0: 30fa d33d 96c0 df3d 227e f43d 8006 493c
000000d0: dcac 2fbd d861 6abd d8bb 60bd f059 33bc
000000e0: d40a e83d 40e0 18bb 48ec 453d 98f7 a93c
000000f0: 001a 6eba b088 dfbc c442 b33d 3227 a2bd
00000100: 6007 463d 2ba0 83be 8b01 2abe 0dae 63bb
00000110: 1ef5 063e 6ab4 11be 569c 1f3e c1e0 843e
00000120: 11e0 ff3d 4b47 85bd b0a4 c23d 95c0 443e
00000130: fb5e 1ebe 7686 28bd 248e 053e 80a0 843e
00000140: 595f e03c c96f d63d 2a1b a53d 042d 87bd
00000150: 408b b8ba 53dd d03c 88dc e2bd 22b1 e63c
00000160: 6803 d33d 95c1 3ebe 3a03 bebe 13e2 9e3d
00000170: 1453 8c3d 963a 85bd 9b98 463d d185 f33b
00000180: af01 17be 29bd e3bb 2e25 d6bd 96e4 923d
00000190: 3805 af3c 7c57 00be e8c8 5bbd 24d9 53bd
000001a0: d313 dfbc 03a8 6f3e f18c 6b3e d4b4 8cbd
000001b0: 00d4 733d 0d58 e9bd 71c0 acbd e3f8 aa3d
000001c0: aa3a 503e 8acc b93d 592c 4f3e 9b39 14bb
000001d0: ad43 43be 7c45 36bc 7ce4 b2bd f92d b13d
000001e0: 107d 1c3c 5b46 c83d 6669 15be c0d7 353e
000001f0: fd5d aabd 4628 d1bc f4b0 673d 5ede 2e3e
00000200: 80ce 0e3e 4ef6 abbc 3ce1 233e d2ce 533d
00000210: a29f 71bd a711 0c3e 48f1 bbbd c95e 5a3b
00000220: 01c1 3c3d 3b03 4b3d ace0 3ebe 02bd 87be
00000230: af1d 103e d252 dcbd be6d 14be ac5a 8fbe
00000240: a642 533b 8b7a 2f3d bc09 17be e079 e23d
00000250: 3f0b 01be 97f8 933d 7e42 263e 139f df3d
00000260: 4448 15be 7fda 233e 7151 7b3e 62e6 113e
00000270: bc1b 143c 63b5 e4bc 87eb c13d f8af fd3d
00000280: 0141 663e 25f1 19be 3bcf 3fbd 07af 31be
00000290: 1f55 ccbc 3777 71bd 70c1 93bd c293 173e
000002a0: a0b1 59bd 79b9 14be c7de 65be e6cc 4abd
000002b0: ddd1 853d f255 b3bb ded4 1a3e 3ec8 b0bd
000002c0: 2fa8 14be d87c e33d 8cba 343c 1547 1c3e
000002d0: 6718 2d3d 4eda 84bd e7f1 05bc 00fd 72bd
000002e0: c6f3 d6bd 5dec 87bd 94fd 393e 6af8 b3bd
000002f0: b61a 3e3d f509 e23d 3e20 afbd 7ba2 663d
00000300: d647 27be 69c4 88be 1eea cabd 9bad 923e
00000310: 9025 af3e a498 47bc d80c 0bbe 4558 c33e
00000320: 9698 103e ca41 69bd 8ce5 9d3b c575 833e
00000330: ef51 9ebe 787c ef3d 5451 48bd 5cc5 6b3e
00000340: de52 d9bc a2ed cc3d 91a8 553d 8a4f 04be
00000350: 977c 623d 8a56 313e cfe1 52bc fc1f 853d
00000360: e255 bf3e fd10 d43d 719a 87be 37c9 223d
00000370: 609f a4bc cff3 92bc 696c e2bb 15a7 48bc
00000380: 461f 54be 3b2a 01bd db6b cbbd 3fa1 033e
00000390: e22c f53c 95ad 91bd bbb1 133e ee9f 88be
000003a0: bac0 39bc c5a0 183e 1347 3e3e 9ff4 29be
000003b0: 33d4 21be e9fb fb3d 3d8c 843d 97af f13d
000003c0: e6f4 1a3e 1f0c 18be 2e71 c9bc d368 f4bc
000003d0: 94a2 7ebe ef29 57be 3658 b43b 1cea f8bd
000003e0: 6846 c53d 3825 32be e2d1 c03d 6025 e8bc
000003f0: 86d6 36bc 482c 94be 7509 75bc 8ec7 af3e

decoder.2.bias f4 [128]
-0.029856637 -0.17538632 0.11173695 0.09721882 0.04127815 -0.028314976 -0.12125344 0.17881292
-0.097671844 -0.007173884 0.016636068 0.053232297 0.18862763 0.087502256 -0.124481075 -0.024850354
0.24647981 -0.09259168 -0.18863249 0.08631374 0.18205105 0.007472064 -0.35903177 0.13308544
0.25680146 0.017834222 -0.20348871 0.10427822 0.20206149 0.038094167 -0.32404608 -0.07287857
0.32815182 0.043976236 0.112025835 -0.059736136 0.029281083 -0.2972933 0.1422054 0.15364334
0.08964748 0.061272405 -0.4809538 -0.01281962 0.07024542 0.12245184 -0.018877741 0.16457759
0.1286835 0.014568279 0.29685658 -0.013610739 0.12067319 0.19042152 0.08075517 0.06779203
0.076098144 -0.05182983 -0.12095498 0.41122445 0.05967251 0.13814764 0.0252468 -0.022395521
-0.064090855 -0.18466133 0.022251137 0.17790578 -0.083479464 -0.04110183 -0.1234684 0.07370917
0.16403496 0.058062933 -0.05190056 0.29503426 0.121237144 -0.10997473 -0.72903854 -0.03488549
0.08363293 -0.11068405 0.10324319 0.712616 0.45109746 0.11561477 -0.20444708 0.034803152
-0.060552366 -0.031040473 -0.1435504 0.09387256 -0.04947561 0.10559015 0.05285879 0.1241506
-0.121666096 -0.042132244 0.100768335 0.20149764 0.019228538 0.30821258 0.23747745 -0.042429734
0.14072196 -0.06824311 0.5616076 -0.036724124 -0.02121182 0.035522155 -0.19778019 -0.31832907
-0.022507742 0.13627793 0.048159257 0.048207406 0.104539 0.14691149 0.12996946 0.14310196
0.14574867 0.10452718 0.057538416 0.031633057 0.06460057 -0.4518139 -0.22450963 0.11882729
00000000: e895 f4bc 7998 33be 58d6 e43d a91a c73d
00000010: 4713 293d cff4 e7bc b953 f8bd bc1a 373e
00000020: 2d08 c8bd e712 ebbb 5d48 883c 1c0a 5a3d
00000030: 9a27 413e 6234 b33d efef febd f892 cbbc
00000040: 3465 7c3e b5a0 bdbd e028 41be 42c5 b03d
00000050: 976b 3a3e 37d8 f43b 03d3 b7be 8d47 083e
00000060: 7b7b 833e 1319 923c 585f 50be d28f d53d
00000070: 35e9 4e3e a108 1c3d 5ee9 a5be 5c41 95bd
00000080: 8403 a83e 6d20 343d cd6d e53d e1ad 74bd
00000090: e2de ef3c d436 98be 4b9e 113e ae54 1d3e
000000a0: 1999 b73d c6f8 7a3d 943f f6be 6209 52bc
000000b0: d5dc 8f3d 08c8 fa3d 7ea5 9abc 0787 283e
000000c0: 9cc5 033e caaf 6e3c 96fd 973e 94ff 5ebc
000000d0: 8123 f73d dcfd 423e f762 a53d 8cd6 8a3d
000000e0: 58d9 9b3d 844b 54bd 3fb7 f7bd 038c d23e
000000f0: 296b 743d 9376 0d3e 61d2 ce3c d076 b7bc
00000100: 1142 83bd dc17 3dbe 0448 b63c ef2c 363e
00000110: 48f7 aabd 645a 28bd 00dd fcbd d5f4 963d
00000120: c8f8 273e 66d3 6d3d ae95 54bd bb0e 973e
00000130: 2e4b f83d 6e3a e1bd 45a2 3abf 16e4 0ebd
00000140: be47 ab3d 52ae e2bd 2a71 d33d 016e 363f
00000150: 3ff6 e63e 70c7 ec3d 935a 51be c08d 0e3d
00000160: c205 78bd 9748 febc e0fe 12be 4240 c03d
00000170: f0a6 4abd a63f d83d 7582 583d ab42 fe3d
00000180: 132c f9bd dc92 2cbd a15f ce3d 6655 4e3e
00000190: 2b85 9d3c 0ace 9d3e 4a2d 733e cdca 2dbd
000001a0: 6b19 103e 0bc3 8bbd 84c5 0f3f 096c 16bd
000001b0: 69c4 adbc ae7f 113d e486 4abe 07fc a2be
000001c0: 2862 b8bc 718c 0b3e a442 453d 2175 453d
000001d0: 8b18 d63d f76f 163e b716 053e 5289 123e
000001e0: 243f 153e 5912 d63d 67ad 6b3d aa91 013d
000001f0: 4e4d 843d 2754 e7be dae5 65be b95b f33d

decoder.4.weight f4 [784, 128]
0.050435543 -0.01979296 -0.05491036 0.05187084 -0.06894563 -0.27112934 -0.023932151 -0.08460788
0.07297766 -0.08032579 0.028716458 0.024459353 0.029257976 -0.01755881 -0.0023886373 0.0279465
-0.04869924 -0.09981017 -0.049832698 -0.056576833 -0.050856043 -0.060645405 -0.06756216 0.0028942972
-0.08261828 -0.08475489 -0.08627735 -0.00082069397 0.0016621295 -0.0010343875 -0.23291266 0.046453223
-0.3237354 -0.037986998 0.042007264 -0.05026511 -0.004459585 -0.11570772 0.010950082 0.046661105
0.084355965 0.032550134 -0.052477065 0.0077769184 0.012693854 -0.059539575 -0.08313585 -0.03092302
-0.0869065 0.014758953 -0.50290126 -0.06866552 -0.02020818 -0.03418722 0.014176667 -0.08555845
-0.120890304 -0.009422031 0.033598952 -1.8684534e-05 -0.030587222 -0.010734227 -0.10250038 -0.10646408
-0.008106891 -0.0006060914 0.0061745057 -0.04527945 0.08207036 0.046450827 0.076364405 -0.04151931
-0.0022374496 0.059568282 -0.08965476 -0.044868775 -0.06560927 -0.032107297 -0.054456133 -0.11297768
0.0058637406 -0.022218684 -0.040319465 -0.62617725 -0.101431094 0.015868945 -0.3561256 -0.10795022
-0.0061631566 0.04171673 -0.11815207 -0.49700722 -0.008190705 -0.013703539 -0.10537712 -0.035729475
0.015667476 -0.08726478 -0.09311768 -0.0037782972 -0.10912199 -0.60824907 0.028681532 -0.12286719
-0.019172655 0.08199627 -0.46497458 0.024223002 0.055883795 -0.05834915 0.00576257 -0.04161366
-0.07890436 -0.009478668 0.03933615 -0.12476749 -0.10707366 -0.010741925 -0.121884905 -0.089892544
-0.065285094 -0.10237962 -0.117322035 -0.065376975 0.006490969 -0.009229745 -0.23475803 0.020483432
-0.055598278 -0.050707374 -0.10703917 -0.020045497 -0.011566478 -0.2614336 -0.11019107 -0.017231053
0.076114796 0.019031705 -0.004458981 -0.051654447 -0.06569112 -0.00036776913 -0.0367419 0.020217622
0.019540567 0.04605051 -0.022710862 -0.092592075 -0.1281499 -0.017694538 -0.07935114 -0.062283035
-0.0794643 0.04462008 -0.09431871 -0.024801387 -0.006064357 0.044350356 -0.13570543 -0.07577042
-0.31808788 -0.087839775 -0.0046718996 0.08570656 0.016156884 -0.12139628 0.028039668 -0.006581476
-0.0041583097 -0.025169592 -0.05415287 0.03562376 0.043624274 -0.111182794 0.036066636 -0.085859485
-0.1139978 -0.029262839 -0.4827424 -0.042266417 -0.12909381 0.0064321854 -0.081877865 0.03697938
0.041301567 -0.06602903 -0.034978155 -0.10500593 -0.0067516826 -0.057647076 -0.016535023 -0.0011889368
0.047132336 -0.05233466 -0.06818841 -0.039514232 -0.041867256 -0.10495207 -0.040339433 -0.03998868
0.0029139922 -0.026930256 -0.04098033 -0.045012016 -0.017204184 -0.093884684 0.05861775 -0.008119258
-0.007813591 0.04388068 0.01536045 -0.7474303 0.04059789 -0.05788993 -0.43998307 0.048877783
0.028086128 0.03809476 -0.08347871 -0.41838753 0.053359192 0.023438515 -0.07358921 -0.03627273
-0.079551674 0.034583956 -0.03764634 -0.036942713 0.016966172 -0.7873761 -0.001484576 -0.09863733
-0.09518872 0.051496305 -0.54191345 0.0343828 -0.10883486 -0.110316895 -0.04791152 0.05181817
-0.031634066 -0.054077722 -0.03926752 -0.042834535 0.018618552 -0.08202922 -0.044433717 -0.04940901
-0.07520737 -0.07609345 -0.072849244 0.022394625 -0.086889476 -0.12085046 -0.15901801 -0.03253895
00000000: 8095 4e3d d824 a2bc b0e9 60bd 8576 543d
00000010: 5e33 8dbd 77d1 8abe 5c0d c4bc e546 adbd
00000020: 5075 953d d981 a4bd c73e eb3c fb5e c83c
00000030: 6cae ef3c 7ed7 8fbc af8a 1cbb 0ff0 e43c
00000040: db78 47bd 4669 ccbd 5f1d 4cbd 1cbd 67bd
00000050: 6d4e 50bd 5167 78bd 085e 8abd 40ae 3d3b
00000060: c633 a9bd f993 adbd 2eb2 b0bd d723 57ba
00000070: d0db d93a 4994 87ba a880 6ebe bc45 3e3d
00000080: a5c0 a5be 4198 1bbd cf0f 2c3d cae2 4dbd
00000090: b621 92bb 2bf8 ecbd f967 333c b71f 3f3d
000000a0: d2c2 ac3d 4a53 053d 31f2 56bd 85d5 fe3b
000000b0: e2f9 4f3c c5df 73bd 2143 aabd 4652 fdbc
000000c0: 09fc b1bd 89cf 713c 23be 00bf 82a0 8cbd
000000d0: a08b a5bc e607 0cbd 4045 683c 4539 afbd
000000e0: 5695 f7bd dd5e 1abc 0e9f 093d bbbc 9cb7
000000f0: 0e92 fabc 9cde 2fbc b8eb d1bd d709 dabd
00000100: c4d2 04bc 1be2 1eba 8253 ca3b f276 39bd
00000110: 8114 a83d 3943 3e3d f164 9c3d 2710 2abd
00000120: 2da2 12bb dffd 733d ea9c b7bd 52c8 37bd
00000130: 275e 86bd f182 03bd 650d 5fbd d860 e7bd
00000140: 9f24 c03b f503 b6bc 0626 25bd 274d 20bf
00000150: 1bbb cfbd 97ff 813c 1856 b6be 0115 ddbd
00000160: 4ef4 c9bb 29df 2a3d b6f9 f1bd bb77 febe
00000170: 4f32 06bc cf84 60bc f6cf d7bd 1259 12bd
00000180: 1459 803c e1b7 b2bd 7bb4 bebd 4f9d 77bb
00000190: 5a7b dfbd 36b6 1bbf 88f5 ea3c cba1 fbbd
000001a0: f90f 9dbc a9ed a73d 2611 eebe 516f c63c
000001b0: 68e6 643d 85ff 6ebd f1d3 bc3b 1673 2abd
000001c0: 9c98 a1bd 6a4c 1bbc f11e 213d 1986 ffbd
000001d0: 6f49 dbbd e6fe 2fbc cb9e f9bd 9519 b8bd
000001e0: 31b4 85bd 68ac d1bd 8946 f0bd 5de4 85bd
000001f0: 32b2 d43b 5b38 17bc 6964 70be dfcc a73c
00000200: 05bb 63bd 89b2 4fbd 5a37 dbbd 7436 a4bc
00000210: 5381 3dbc a0da 85be dbab e1bd 2328 8dbc
00000220: 13e2 9b3d 61e8 9b3c a51c 92bb 9d93 53bd
00000230: 1189 86bd 23d1 c0b9 ad7e 16bd 6d9f a53c
00000240: 8a13 a03c 769f 3c3d 210c babc eaa0 bdbd
00000250: ba39 03be 23f4 90bc da82 a2bd 7f1c 7fbd
00000260: 2ebe a2bd 8cc3 363d 2b2a c1bd 472c cbbc
00000270: 83b7 c6bb b8a8 353d 5df6 0abe 862d 9bbd
00000280: 6adc a2be 57e5 b3bd bc16 99bb ec86 af3d
00000290: 715b 843c 9d9e f8bd 72b3 e53c 6ca9 d7bb
000002a0: 6e42 88bb 7630 cebc 66cf 5dbd 38ea 113d
000002b0: 5eaf 323d ceb3 e3bd 9cba 133d 19d7 afbd
000002c0: ae77 e9bd 9fb8 efbc 032a f7be 8d1f 2dbd
000002d0: 2b31 04be 15c5 d23b 95af a7bd b177 173d
000002e0: d52b 293d 3a3a 87bd 4145 0fbd 590d d7bd
000002f0: 383d ddbb 571f 6cbd 7574 87bc 19d6 9bba
00000300: d60d 413d de5c 56bd 5da6 8bbd add9 21bd
00000310: 007d 2bbd 1cf1 d6bd f63a 25bd 2ccb 23bd
00000320: adf8 3e3b d79c dcbc feda 27bd 855e 38bd
00000330: caef 8cbc 9d46 c0bd 2a19 703d a306 05bc
00000340: 9304 00bc 3abc 333d 66aa 7b3c 9857 3fbf
00000350: f949 263d fe1d 6dbd 7645 e1be 1234 483d
00000360: e114 e63c 4009 1c3d e3f6 aabd e436 d6be
00000370: 2b8f 5a3d 2102 c03c f1b5 96bd b792 14bd
00000380: fdeb a2bd e8a7 0d3d 0c33 1abd 3e51 17bd
00000390: a4fc 8a3c 7b91 49bf 1b96 c2ba 5e02 cabd
000003a0: 4ef2 c2bd caed 523d d7ba 0abf fbd4 0c3d
000003b0: d0e4 debd d3ed e1bd df3e 44bd 4a3f 543d
000003c0: b992 01bd 9a80 5dbd fbd6 20bd 4473 2fbd
000003d0: ef85 983c f0fe a7bd 2100 36bd 1a61 4abd
000003e0: 5206 9abd e2d6 9bbd fc31 95bd ef74 b73c
000003f0: 1cf3 b1bd 7280 f7bd 9ed5 22be 9047 05bd

decoder.4.bias f4 [784]
0.038321454 -0.038618036 0.031463645 -0.043605503 -0.101134665 -0.10526298 -0.0791106 0.027889187
-0.06365287 -0.0076088477 -0.04131388 -0.0053644194 -0.08230039 -0.09028683 -0.05983916 -0.0057005635
0.018066546 -0.09046401 -0.08399086 0.0410517 -0.052160233 -0.0019803185 0.01736426 -0.106907025
0.03152949 -0.008096429 0.044457346 0.012296248 -0.0796993 0.019277923 0.03301609 0.049357258
-0.05440491 -0.03262846 0.027328394 0.039390262 -0.05923281 0.052089784 -0.046829306 -0.03891652
-0.08911702 -0.09176911 -0.023237808 -0.008021974 -0.0337728 0.031037917 0.05976039 -0.09320779
-0.08565099 0.03912492 -0.018550891 -0.11109763 -0.007834806 -0.08930314 0.011133665 -0.046043955
-0.109374724 -0.11233569 0.026526563 -0.04326777 -0.031616252 -0.004580514 -0.056834735 -0.05359042
-0.022922283 -0.09330645 -0.06486965 -0.10451008 -0.057104576 0.059613384 0.04657711 -0.018910633
0.007651604 -0.10626743 0.032927547 -0.071931794 -0.019047406 -0.09786787 -0.041670814 -0.015114409
-0.07751559 -0.10912342 0.0536972 -0.045390557 0.043573316 -0.0011123569 0.051610753 -0.002329295
-0.016381053 0.055535883 0.011883151 -0.090108834 -0.041783523 -0.09551212 -0.058648285 -0.11819223
-0.117121786 -0.11050454 0.029834537 -0.0019998527 -0.04860579 -0.11510995 0.03887964 -0.12599951
-0.09152417 0.021733731 -0.021595217 0.008651211 -0.10467949 -0.01551705 -0.07610453 -0.017619982
-0.10347257 -0.04113383 -0.09346475 -0.014617287 0.040710654 -0.09966813 -0.04931081 0.0510307
0.028075093 -0.04666303 -0.004144452 0.012708856 0.003658859 0.028442716 -0.045920607 -0.07385477
0.014625137 -0.023451585 -0.010555624 -0.109664395 -0.07592598 -0.115442805 -0.11034741 0.014826097
-0.01492677 0.032752298 -0.041648448 0.009129909 -0.02480102 -0.036602702 -0.054959815 -0.043895394
0.04260581 -0.046165533 0.010321239 0.027213272 -0.052012045 -0.04262453 -0.007314451 -0.05106026
0.077838 0.03549579 -0.017813317 0.023512991 0.06229328 -0.08006323 -0.048350576 0.009416534
-0.016508486 -0.04704993 -0.119934864 -0.070208736 -0.0590921 0.033837434 0.043575455 0.037283435
-0.08173277 -0.005376971 -0.0077102487 -0.069480926 0.028888196 -0.05774493 0.013291729 -0.009547018
-0.052249525 -0.09483445 -0.06122434 -6.520091e-05 0.053825237 -0.08292082 0.0075441403 -0.09122966
0.015467844 -0.06543637 0.05770118 -0.1468906 -0.008099965 -0.096258566 -0.014699279 -0.09079597
-0.08958929 -0.019730056 0.012688221 -0.10051187 -0.032786615 -0.1088423 0.0068714707 -0.07631169
0.014909622 -0.062405933 0.020049628 -0.07084077 0.0003703617 0.031646505 -0.044890687 -0.055465754
-0.08488117 -0.05447496 -0.10336249 -0.017081177 -0.023082921 -0.0158005 -0.08958517 0.040124245
-0.005385674 -0.03240658 0.028781073 0.05917754 0.033643957 0.060027286 -0.0057172095 -0.109806366
0.00579113 0.04841392 -0.020327 0.034197163 -0.07656064 0.04581576 -0.092799984 -0.073341936
-0.10606322 0.059165787 -0.031468466 -0.119430125 -0.105811134 -0.08328949 -0.07197999 -0.15502664
-0.01803367 0.008015927 0.068410344 -0.09506631 -0.10950414 0.018300138 -0.096464016 -0.034039218
0.021488143 -0.08337696 -0.051865563 -0.017053735 -0.036881797 -0.026895065 -0.031799328 -0.03375051
00000000: f5f6 1c3d f22d 1ebd 06e0 003d af9b 32bd
00000010: b11f cfbd 1e94 d7bd bd04 a2bd dd77 e43c
00000020: 705c 82bd a453 f9bb be38 29bd 03c8 afbb
00000030: 1b8d a8bd 4de8 b8bd e819 75bd cbcb babb
00000040: 4b00 943c 3245 b9bd 6603 acbd d425 283d
00000050: f8a5 55bd 3bc8 01bb 7e3f 8e3c 12f2 dabd
00000060: 1125 013d e2a6 04bc e818 363d 3476 493c
00000070: 6339 a3bd bcec 9d3c e13b 073d d62a 4a3d
00000080: afd7 5ebd 6ca5 05bd ccdf df3c af57 213d
00000090: 1a9e 72bd 195c 553d 16d0 3fbd ee66 1fbd
000000a0: fc82 b6bd 71f1 bbbd 375d bebc 996e 03bc
000000b0: 5955 0abd 3b43 fe3c 50c7 743d bae3 bebd
000000c0: c969 afbd 7441 203d 0af8 97bc 2787 e3bd
000000d0: 8f5d 00bc 91e4 b6bd fa69 363c 9698 3cbd
000000e0: dbff dfbd 4110 e6bd 3c4e d93c 8c39 31bd
000000f0: 0b80 01bd 2318 96bb 8acb 68bd a181 5bbd
00000100: 83c7 bbbc 7417 bfbd 61da 84bd 6109 d6bd
00000110: 7de6 69bd 2a2d 743d a4c7 3e3d 79ea 9abc
00000120: 4eba fa3b bda2 d9bd 09df 063d fa50 93bd
00000130: 4e09 9cbc f36e c8bd 04af 2abd 6da2 77bc
00000140: 7ec0 9ebd 1a7c dfbd 98f1 5b3d 73eb 39bd
00000150: ef79 323d 81cc 91ba cc65 533d 16a7 18bb
00000160: 8f31 86bc 9879 633d 8cb1 423c fb8a b8bd
00000170: 3325 2bbd dc9b c3bd 2f39 70bd c50e f2bd
00000180: 8cdd efbd 3450 e2bd 8f67 f43c f60f 03bb
00000190: dd16 47bd c4be ebbd 4240 1f3d 0406 01be
000001a0: 0671 bbbd f00a b23c 74e8 b0bc cfbd 0d3c
000001b0: 3362 d6bd 3a3b 7ebc b1dc 9bbd c857 90bc
000001c0: 6de9 d3bd f27b 28bd 726a bfbd 587d 6fbc
000001d0: 37c0 263d ce1e ccbd 22fa 49bd 9105 513d
000001e0: bdfd e53c bc21 3fbd 2fce 87bb ce38 503c
000001f0: 78c9 6f3b b300 e93c 3f17 3cbd 2b41 97bd
00000200: 459e 6f3c 8a1d c0bc 7ff1 2cbc ba97 e0bd
00000210: 157f 9bbd 476d ecbd d3fd e1bd 28e9 723c
00000220: 698f 74bc 4627 063d 9097 2abd 9d95 153c
00000230: 822b cbbc b7ec 15bd 8b1d 61bd a8cb 33bd
00000240: 6e83 2e3d 1218 3dbd 6a1a 293c 5eee de3c
00000250: 950a 55bd 0f97 2ebd 10ae efbb 9024 51bd
00000260: 8869 9f3d 0964 113d 3ced 91bc 519e c03c
00000270: 3d27 7f3d 31f8 a3bd 410b 46bd ce47 1a3c
00000280: ce3c 87bc 6db7 40bd 69a0 f5bd 99c9 8fbd
00000290: 8f0a 72bd 1f99 0a3d 2d7c 323d 84b6 183d
000002a0: 8363 a7bd 4d31 b0bb 41a6 fcbb 044c 8ebd
000002b0: f0a6 ec3c f385 6cbd 8dc5 593c 196b 1cbc
000002c0: 9903 56bd 9038 c2bd 60c6 7abd 79bc 88b8
000002d0: da77 5c3d 64d2 a9bd d634 f73b 9ed6 babd
000002e0: d76c 7d3c 8103 86bd 1358 6c3d 7d6a 16be
000002f0: b7b5 04bc 3623 c5bd 3fd5 70bc 3df3 b9bd
00000300: 977a b7bd eda0 a1bc 42e2 4f3c 2bd9 cdbd
00000310: 424b 06bd b6e8 debd 132a e13b 4e49 9cbd
00000320: 7d47 743c 5d9d 7fbd 1e3f a43c f714 91bd
00000330: 1b2d c239 c49f 013d 4cdf 37bd 0f30 63bd
00000340: 2ed6 adbd 2321 5fbd b7af d3bd d3ed 8bbc
00000350: 6518 bdbc 0d70 81bc 6e78 b7bd 5259 243d
00000360: 4f7a b0bb c3bc 04bd 49c6 eb3c 2664 723d
00000370: 3fce 093d 2cdf 753d 6e57 bbbb 29e2 e0bd
00000380: 85c3 bd3b ad4d 463d cf84 a6bc 5312 0c3d
00000390: d3cb 9cbd 4ea9 3b3d eb0d bebd 4c34 96bd
000003a0: ac37 d9bd d357 723d 14e5 00bd c897 f4bd
000003b0: 82b3 d8bd ae93 aabd 3f6a 93bd 4ebf 1ebe
000003c0: 59bb 93bc 3c55 033c b91a 8c3d 20b2 c2bd
000003d0: b543 e0bd 2cea 953c ed8e c5bd b56c 0bbd
000003e0: e707 b03c 8ac1 aabd fc70 54bd 46b4 8bbc
000003f0: 5e11 17bd 0a53 dcbc 0340 02bd fa3d 0abd
